model/Backbone.pth (torch, 177008 bytes, 33 tensors)

backbone.res0.0bn.weight f4 [32]
0	0x3f7edfed	0.99560434
1	0x3f7ee0c0	0.9956169
2	0x3f7ee0bd	0.99561673
3	0x3f7edecc	0.9955871
4	0x3f7ee46b	0.9956729
5	0x3f7ee170	0.9956274
6	0x3f7ee270	0.99564266
7	0x3f7edfbb	0.99560136
8	0x3f7ee482	0.99567425
9	0x3f7ee4df	0.9956798
10	0x3f7ee67d	0.9957045
11	0x3f7ede6b	0.9955813
12	0x3f7ee0d4	0.9956181
13	0x3f7edf68	0.9955964
14	0x3f7ee1e5	0.9956344
15	0x3f7edef3	0.99558944
16	0x3f7ee0d1	0.9956179
17	0x3f7ee422	0.99566853
18	0x3f7ee10b	0.9956214
19	0x3f7ee022	0.9956075
20	0x3f7ee16f	0.99562734
21	0x3f7ee2ee	0.9956502
22	0x3f7ee10b	0.9956214
23	0x3f7ee068	0.99561167
24	0x3f7ee02b	0.99560803
25	0x3f7ede20	0.99557686
26	0x3f7ede57	0.99558014
27	0x3f7ee3c0	0.9956627
28	0x3f7ede27	0.9955773
29	0x3f7edef6	0.9955896
30	0x3f7ee2c8	0.9956479
31	0x3f7ee29a	0.99564517

backbone.res0.0bn.bias f4 [32]
0	0x3ae669a9	0.0017579097
1	0x3a7c671c	0.00096284016
2	0x3b10363f	0.002200499
3	0x3b50ec5c	0.0031879162
4	0xbaddcc74	-0.0016921894
5	0xbad5cf2d	-0.0016312354
6	0x3b02b77d	0.0019945793
7	0xbb0b0475	-0.0021212373
8	0xb9b05c02	-0.00033637887
9	0xb93169ab	-0.000169194
10	0x3ab944c6	0.0014134876
11	0x3b4e2fd3	0.003146161
12	0x3b4888b9	0.0030599071
13	0x3b0138be	0.001971766
14	0xb9aaab22	-0.0003255243
15	0x3b5a4d42	0.003331021
16	0x3af035c5	0.0018326571
17	0x3ad090ef	0.0015912334
18	0xbaf60f4e	-0.0018772872
19	0x3a194b8f	0.0005847746
20	0xbaa25817	-0.0012385872
21	0x3b265656	0.002538105
22	0xbb500c42	-0.0031745587
23	0x3b4cb9a0	0.003123857
24	0xbaacaeab	-0.0013174614
25	0x3b07b7bc	0.002070888
26	0xba6212d1	-0.00086240197
27	0xba5ad6b4	-0.00083480333
28	0x3b450cca	0.0030067437
29	0x3992b829	0.000279845
30	0x3abcd54c	0.0014406829
31	0x39dbf27d	0.00041951603

backbone.res0.0bn.running_mean f4 [32]
0	0x3eca8d59	0.39560965
1	0x3ee1866b	0.44047865
2	0x3d8a1570	0.0674237
3	0x3e98b2f0	0.29824018
4	0x3e2bfa04	0.16794592
5	0x3e088e7c	0.13335603
6	0x3e9e451a	0.30912095
7	0x3e711ad6	0.23545393
8	0x3edbd35a	0.42934686
9	0x3f3880b2	0.72071373
10	0x3f0cc66d	0.54990274
11	0x3ed6694d	0.41877213
12	0x3d72fce3	0.059323203
13	0x3de7261a	0.11286564
14	0x3f6ccc14	0.924989
15	0x3e8508a0	0.25983143
16	0x3e31972b	0.17342822
17	0x3eec21cd	0.46119538
18	0x3eac2ad3	0.33626422
19	0x3edfb256	0.43690747
20	0x3e9eb4e5	0.30997387
21	0x3e9eac9e	0.3099107
22	0x3e6ea7e2	0.2330623
23	0x3e7bec84	0.24601942
24	0x3f07a91c	0.52992415
25	0x3eb68978	0.35651755
26	0xbcb67789	-0.022273796
27	0x3daa4ff0	0.08316028
28	0x3dffddd0	0.12493479
29	0x3f25b7d2	0.6473361
30	0x3ead0090	0.33789492
31	0x3f07bb2d	0.5301998

backbone.res0.0bn.running_var f4 [32]
0	0x3e781740	0.24227619
1	0x3e96cfee	0.29455513
2	0x3e7e475b	0.24831907
3	0x3eb07b48	0.34469056
4	0x3f933339	1.1500007
5	0x3f09a48b	0.537667
6	0x3de2ba51	0.11070693
7	0x3f091154	0.53542066
8	0x3f5de175	0.86672145
9	0x3e424906	0.18973169
10	0x3e44beb6	0.19213375
11	0x3e8aef36	0.27135628
12	0x3dd33584	0.10312942
13	0x3f2a3006	0.6647953
14	0x400f6fee	2.2412066
15	0x3f67a0f4	0.9047997
16	0x3ef481ab	0.4775518
17	0x3e60ed9a	0.21965638
18	0x3f4b8edb	0.79514855
19	0x3e8c6929	0.2742398
20	0x3e20ecc7	0.15715323
21	0x3e6d551e	0.23177001
22	0x3f0041ab	0.501002
23	0x3eb8078a	0.35943252
24	0x4023d2ee	2.5597491
25	0x3ecfbf5c	0.40575683
26	0x3ea92820	0.33038425
27	0x3de59817	0.112106495
28	0x3ed9ea07	0.4256136
29	0x3ded21d8	0.11578721
30	0x3d9975af	0.074931495
31	0x3efbea2f	0.49202105

backbone.res0.0conv1.weight f4 [32, 32, 3]
0	0x3bb002cc	0.005371427
1	0xbd458a3b	-0.04822753
2	0x3c78de78	0.015189759
3	0x3c7f4a3a	0.015581662
4	0xbcd624da	-0.02614062
5	0xbd9ae407	-0.07563024
6	0x3dbf3739	0.09336705
7	0x3d8c379d	0.06846545
8	0xbd0e6166	-0.034760855
9	0xbccaf566	-0.024775218
10	0x3d13c12c	0.036072895
11	0xbc088675	-0.008332838
12	0xba6a48c3	-0.0008937234
13	0x3da00d65	0.07815055
14	0xbcad7ec0	-0.021178603
15	0xbd444ea8	-0.047926575
16	0xbcd0b4a8	-0.025476769
17	0x3d77194d	0.060326863
18	0xbdbedc50	-0.09319365
19	0x3d787c95	0.060665686
20	0xbd9f51c7	-0.0777927
21	0xbd0126db	-0.031531196
22	0xbd1cba6d	-0.038263727
23	0xbbdf5152	-0.006815114
24	0x3d2a9162	0.041642554
25	0xbdb27cd5	-0.08715216
26	0x3d93aa86	0.07210259
27	0x3c8c11b9	0.017098295
28	0xbd195b00	-0.0374403
29	0x3c586944	0.013208691
30	0xbdbff23f	-0.09372377
31	0xbd11721d	-0.035509218
32	0x3c282a68	0.010264017
33	0xbc0ecb55	-0.00871547
34	0xbcd30ca7	-0.025762869
35	0xba046129	-0.00050498784
36	0x3d35e46f	0.044407304
37	0x3d9da4f8	0.07697481
38	0xbdc077e2	-0.09397866
39	0x3cd4a8d7	0.025959415
40	0xbd684c3c	-0.056713328
41	0x3b37498e	0.0027967426
42	0x3d4d47e9	0.050117407
43	0xbca8235e	-0.020524677
44	0xbd026ab6	-0.03184005
45	0xbc00abd7	-0.00785347
46	0x3b2eb9a9	0.0026660955
47	0xbd33b435	-0.04387303
48	0xbdbabe48	-0.091183245
49	0x3d98a636	0.07453577
50	0xbd6fcdc3	-0.05854584
51	0xbda3c64f	-0.07996809
52	0x3c7d6ff2	0.015468584
53	0x3c5892eb	0.013218622
54	0x3c5cefa8	0.013484873
55	0x3dab5b28	0.08366996
56	0x3d5dc948	0.054147035
57	0x3d1b937f	0.03798246
58	0x3c82d657	0.015971346
59	0x3d1ba6bd	0.03800081
60	0x3d3d0af3	0.04615302
61	0x3db44b54	0.0880343
62	0x3cacdd21	0.021101536
63	0x3cddd60f	0.02707961
64	0x3db87ac0	0.09007788
65	0x3db29ed4	0.087217
66	0x3d8bfe41	0.068356045
67	0x3c0cfe70	0.0086055845
68	0x3ccf8604	0.025332458
69	0xbd002a6a	-0.03129045
70	0xbd3bfaf2	-0.045893617
71	0x3da9668e	0.08271514
72	0x3d344c6a	0.044018187
73	0xbc9dac0f	-0.019247083
74	0x3d9012b5	0.07034818
75	0x3db76b01	0.08955956
76	0x3db5c274	0.088749796
77	0xbd20b7b8	-0.039237708
78	0x3cb2a04a	0.021804947
79	0x3d047d8c	0.032346293
80	0xbd6324cc	-0.055455014
81	0xbcee5423	-0.029092854
82	0xbd01fcaa	-0.0317351
83	0xbcca19fc	-0.024670593
84	0x3da6101a	0.0810854
85	0x3c9f77b3	0.019466257
86	0x3d929cd7	0.07158821
87	0x3d344305	0.044009227
88	0xbb9a33c2	-0.004705877
89	0x3c41f6f9	0.011838668
90	0x3daca702	0.08430292
91	0xbc7d36a9	-0.0154549265
92	0xbdc7e65e	-0.09760736
93	0xbc8bd968	-0.01707144
94	0xbd05ee94	-0.03269823
95	0x3db63cd1	0.088983186
96	0x3db51e16	0.08843629
97	0xbcb850be	-0.022499438
98	0xbcb818ce	-0.022472765
99	0xbcf9e259	-0.030503439
100	0xbc3a26c5	-0.011361782
101	0xbd00cdc6	-0.03144624
102	0x3db96d82	0.0905409
103	0xbdb43018	-0.08798236
104	0xbd93b5ac	-0.072123855
105	0xbd47d88a	-0.048790492
106	0x3dca2a70	0.098713756
107	0xbbad805b	-0.005294842
108	0xbc3d3fbe	-0.011550842
109	0x3db5f69a	0.08884926
110	0x3bf46dbd	0.007459371
111	0xbccc0a68	-0.024907306
112	0xbc813b74	-0.01577542
113	0xbce41fd9	-0.027847217
114	0xbd4ee98a	-0.05051569
115	0x3cfa0f5a	0.030524898
116	0x3da9d47b	0.082924806
117	0xbd0df879	-0.03466079
118	0x3d612a8b	0.054972213
119	0xbdce3bf2	-0.100700274
120	0xbd6c5c59	-0.057705257
121	0xbc2bd460	-0.010487646
122	0x3db7c19a	0.089724734
123	0x3aa748c5	0.0012762776
124	0xbc4bb242	-0.012432637
125	0x3b8045fa	0.003914592
126	0xbc2bd98d	-0.01048888
127	0x3d49ecb1	0.049297992
128	0xbd5afbc0	-0.053462744
129	0xbd887ef9	-0.06664843
130	0x3d13193a	0.03591273
131	0x3db59ad6	0.08867423
132	0x3c9c6cb3	0.0190948
133	0xbd2de770	-0.042457044
134	0x3d9293b6	0.0715708
135	0x3d04f4dd	0.032460082
136	0x3c4e59a6	0.012594616
137	0x3d9c69f4	0.076373965
138	0x3cf54ff7	0.029945357
139	0x3db81296	0.0898792
140	0x3daf43d1	0.08557857
141	0xbb99933a	-0.00468674
142	0xbd0585f0	-0.032598436
143	0x3d45da29	0.048303757
144	0x3bdd2d2a	0.0067497687
145	0xbd85b5fd	-0.06528852
146	0xbc1d6796	-0.009607216
147	0x3c0c2672	0.008554088
148	0x3c6ff0c9	0.01464481
149	0xbcbbbeac	-0.022918068
150	0xbb9baa51	-0.004750528
151	0xbc9b7170	-0.01897499
152	0xbc43706f	-0.011928662
153	0xbd579df2	-0.052640863
154	0x3c26dcfa	0.010184521
155	0x3aef755f	0.0018269232
156	0xbd3f09d1	-0.04664022
157	0x3d39d12c	0.045365497
158	0xbd61430e	-0.05499559
159	0x3d02444d	0.031803418
160	0xbd5a563e	-0.053304903
161	0x3d1b48da	0.037911274
162	0x39e9b8b0	0.00044578826
163	0x3cc250d7	0.023720188
164	0x3d4f6e4b	0.050642293
165	0x3d348ff6	0.044082604
166	0xbd849bf1	-0.06475056
167	0xbd70261e	-0.0586301
168	0x3d9dd89f	0.07707333
169	0xbb7a7b37	-0.0038220414
170	0x3d5401ff	0.051759716
171	0x3db5195b	0.08842727
172	0x3d9dd4d5	0.0770661
173	0xbd633a3b	-0.055475455
174	0x3d9b2a77	0.07576459
175	0xbd44b6a0	-0.048025727
176	0x3d98c12e	0.07458721
177	0xbd71b175	-0.059007127
178	0x3d011028	0.03150955
179	0x3dc3472c	0.09535059
180	0xbdb9760f	-0.09055721
181	0xbd463abf	-0.04839587
182	0xbd96d948	-0.07365662
183	0xbdc38b14	-0.095480114
184	0xbd01237d	-0.031527985
185	0xbd8fd4bb	-0.07022997
186	0xbd6beb38	-0.05759737
187	0x3d13f230	0.03611964
188	0x3c395057	0.011310658
189	0x3d7ffea2	0.062498696
190	0x3c4346d6	0.011918744
191	0xbd35bfac	-0.044372246
192	0xbd2117ba	-0.039329268
193	0x3d170082	0.03686572
194	0xbcbdacff	-0.02315378
195	0xbdc38964	-0.095476896
196	0xbd402266	-0.046907805
197	0xbdb4b11a	-0.08822842
198	0xbda86c89	-0.082238264
199	0x3d977eaa	0.07397206
200	0xbb51418f	-0.0031929945
201	0x3cf0e28d	0.029404903
202	0xbd1b01ed	-0.037843633
203	0x3c292f1f	0.010326176
204	0xbd698741	-0.057013754
205	0x3c9e66cf	0.019336132
206	0x3d561f4e	0.05227595
207	0x3db510ba	0.08841081
208	0xbd5251e8	-0.051347643
209	0xbd48a13e	-0.048981898
210	0xbdb064ec	-0.08612999
211	0xbdc31894	-0.09526172
212	0xbd4f7b38	-0.05065462
213	0xbc0fb21f	-0.008770495
214	0x3c209b4a	0.009802649
215	0x3c404f93	0.011737722
216	0x3bab7241	0.005232126
217	0xbcc7713a	-0.024345983
218	0x3dd09cfb	0.10186192
219	0x3cc63469	0.024194913
220	0xbd8f5ba9	-0.06999905
221	0x3c8bfc80	0.017088175
222	0x3d9fd311	0.078039296
223	0xbcd2a323	-0.025712555
224	0xbcc01114	-0.023445643
225	0xbd81cb8a	-0.0633765
226	0xbd9f0182	-0.077639595
227	0xbd154316	-0.03644093
228	0x3da56045	0.080750026
229	0xbda31e11	-0.07964719
230	0xbc7481bb	-0.014923508
231	0x3d908e7c	0.07058427
232	0xbd870a5b	-0.06593772
233	0x3d8c5f6e	0.06854139
234	0xbda2dcbd	-0.07952259
235	0x3d58378d	0.052787352
236	0x3d96f545	0.07371
237	0x3caa0f6f	0.020759312
238	0xbceb3be9	-0.02871509
239	0x3dd0cf81	0.10195828
240	0xbce25e44	-0.02763284
241	0x3d3bbc14	0.045833662
242	0x3b8935b9	0.0041873124
243	0x3c62568d	0.013814581
244	0x3c6ef293	0.014584201
245	0xbd4d7b2c	-0.050166294
246	0xbd249c85	-0.04018833
247	0xbd385315	-0.04500111
248	0x3a9be652	0.0011894202
249	0xbd9e5693	-0.077313565
250	0xbc9be7c9	-0.019031422
251	0x3c98b85b	0.018642595
252	0xbd0a02ea	-0.033694185
253	0xbd7a76cd	-0.061148454
254	0x3c9372aa	0.017999012
255	0x3d9e2314	0.07721534

backbone.res0.0+bn.weight f4 [32]
0	0x3f7ee310	0.9956522
1	0x3f7ee669	0.9957033
2	0x3f7ee05f	0.99561113
3	0x3f7ee0fb	0.9956204
4	0x3f7eddfd	0.9955748
5	0x3f7ee27b	0.9956433
6	0x3f7ee273	0.99564284
7	0x3f7ee40b	0.99566716
8	0x3f7ee26f	0.9956426
9	0x3f7ee23d	0.9956396
10	0x3f7ee42f	0.9956693
11	0x3f7edec5	0.9955867
12	0x3f7edf6f	0.9955968
13	0x3f7ee237	0.99563926
14	0x3f7edf66	0.9955963
15	0x3f7edf5c	0.9955957
16	0x3f7ee042	0.9956094
17	0x3f7edfcf	0.99560255
18	0x3f7ee16c	0.99562716
19	0x3f7ee41e	0.9956683
20	0x3f7ede0c	0.99557567
21	0x3f7ee0a5	0.9956153
22	0x3f7ee0b2	0.9956161
23	0x3f7ee13a	0.9956242
24	0x3f7ee1ce	0.995633
25	0x3f7ee0df	0.99561876
26	0x3f7ee04d	0.99561006
27	0x3f7edd0e	0.9955605
28	0x3f7edf62	0.99559605
29	0x3f7ee16e	0.9956273
30	0x3f7ee0bf	0.99561685
31	0x3f7ee5f6	0.9956964

backbone.res0.0+bn.bias f4 [32]
0	0xbaf18762	-0.0018427188
1	0xbb665507	-0.0035145895
2	0xba889cad	-0.001042267
3	0xbb0d4e48	-0.0021561552
4	0xb9bdd35d	-0.00036206367
5	0x38dd58cb	0.0001055464
6	0x3b039220	0.002007611
7	0x3b642e68	0.00348177
8	0x3b19ac24	0.002344855
9	0x3b3c5798	0.0028738733
10	0xbb318399	-0.0027086495
11	0x3b6bb3fc	0.0035965433
12	0xba65cbb2	-0.00087660097
13	0xbacf7675	-0.001582815
14	0x3b437b37	0.002982808
15	0x3b65d5b3	0.0035070002
16	0x3b45b7f6	0.0030169464
17	0x3aeaa4b4	0.0017901869
18	0x3aab003b	0.0013046333
19	0x3b2e97e9	0.0026640838
20	0x3b2926fe	0.0025810595
21	0xba070c49	-0.0005151672
22	0x3b5dbd3c	0.0033834716
23	0xba9d2ac7	-0.0011990898
24	0xb849e3c3	-4.8134254e-05
25	0x3adbd307	0.0016771265
26	0x3b5ec0d9	0.0033989458
27	0x3b5ef45a	0.0034020157
28	0x3b481f07	0.0030536072
29	0x3a292337	0.0006452086
30	0x3b1a14a0	0.0023510829
31	0xba8e6994	-0.0010865205

backbone.res0.0+bn.running_mean f4 [32]
0	0x3e49140d	0.19636555
1	0x3dab38a2	0.08360411
2	0xbd03c336	-0.03216859
3	0x3e2e367c	0.17012972
4	0xbe2e357f	-0.17012595
5	0x3cf3244e	0.029680397
6	0x3e993fcf	0.29931495
7	0x3eb0d64e	0.34538502
8	0x3dc2ae77	0.09505933
9	0x3e1acdd8	0.15117586
10	0x3e804d71	0.25059083
11	0xbdc211f7	-0.09476083
12	0xbeabfb18	-0.33590007
13	0xbe836ad6	-0.25667447
14	0x3d825ea4	0.063657075
15	0xbdc93b7b	-0.09825798
16	0xbe51d181	-0.20490076
17	0x3dadab06	0.08479886
18	0xbc314b18	-0.010821126
19	0x3d5ea973	0.054360818
20	0x3c6b08c4	0.014345352
21	0xbebc957c	-0.36832798
22	0xbd01178c	-0.031516597
23	0x3e8cd7ff	0.27508542
24	0xbde591d2	-0.11209454
25	0x3e07b0e5	0.13251074
26	0xbeccc1ae	-0.39991516
27	0x3e892354	0.26784766
28	0xbd9906c3	-0.07471993
29	0x3dc9d899	0.09855766
30	0xbe89acad	-0.26889554
31	0x3e565f0a	0.20934692

backbone.res0.0+bn.running_var f4 [32]
0	0x3e82818f	0.2548947
1	0x3da74764	0.081679136
2	0x3e0e4262	0.1389251
3	0x3d966fa6	0.07345514
4	0x3e15bb23	0.14622168
5	0x3dc1e76e	0.0946797
6	0x3f1fa1dc	0.6235635
7	0x3e00a2dc	0.12562126
8	0x3d91c427	0.07117491
9	0x3d93cd23	0.07216861
10	0x3e3c0de6	0.18364677
11	0x3e0ca8b4	0.1373623
12	0x3d761103	0.060074817
13	0x3da22d9a	0.07918854
14	0x3d42258c	0.04739909
15	0x3da45474	0.08023921
16	0x3e7b4619	0.24538459
17	0x3da35ca9	0.07976658
18	0x3d805161	0.06265522
19	0x3ded3f8c	0.11584386
20	0x3d4ade55	0.04952844
21	0x3ec16eff	0.37779996
22	0x3e88af11	0.26696065
23	0x3dfae677	0.12250989
24	0x3da8bec9	0.082395144
25	0x3d959f54	0.0730578
26	0x3e9d6957	0.3074443
27	0x3dd5732a	0.104223564
28	0x3d87bd1a	0.06627865
29	0x3dac3d5b	0.0841014
30	0x3dc228ef	0.09480464
31	0x3dca90c0	0.0989089

backbone.res0.0conv2.weight f4 [32, 32, 3]
0	0x3d3a37a9	0.045463238
1	0x3d2b1da5	0.041776318
2	0xbd20392b	-0.03911702
3	0x3dbda76e	0.0926045
4	0xbd1aef43	-0.037825834
5	0x3d901a26	0.070362374
6	0xbdc2a63c	-0.09504363
7	0xbdb54270	-0.088505626
8	0xbc08c410	-0.008347526
9	0xbc920bdd	-0.017827922
10	0xbd92702e	-0.07150303
11	0xbd973bae	-0.0738443
12	0xbdb10d93	-0.08645167
13	0x3dbff45e	0.09372781
14	0x3d407d15	0.046994288
15	0x3d0a633d	0.033786047
16	0xbc68b722	-0.0142038185
17	0x3d95b75b	0.07310363
18	0x3d1d1485	0.038349647
19	0xbb816670	-0.003948979
20	0xbcd75d99	-0.026289748
21	0xbdbf3985	-0.09337143
22	0x3c8eae87	0.017417205
23	0x3d7d21d3	0.061799835
24	0x3d74bcaf	0.059750255
25	0x3d68528a	0.05671934
26	0x3d72486f	0.05915111
27	0x3d9ab9b9	0.07554955
28	0xbd893d41	-0.067011364
29	0x3cec0e1b	0.02881532
30	0x3d978b60	0.073996305
31	0x3d1471b5	0.036241252
32	0xbbb8affe	-0.0056362143
33	0x3c897c02	0.016782764
34	0x3cd2870c	0.025699161
35	0x3d707df4	0.05871387
36	0x3d8dcba6	0.069236085
37	0x3ce8625e	0.028367218
38	0x3dc5600c	0.0963746
39	0x3c5e1b7e	0.013556359
40	0xbc30deba	-0.01079529
41	0xbd927670	-0.071514964
42	0x3d36d303	0.04463483
43	0x3d6f687e	0.05844926
44	0x3d851248	0.064976275
45	0x3b98899e	0.004655077
46	0x3b533f63	0.0032233826
47	0x3d38f4b8	0.045155257
48	0xbd3cc565	-0.046086688
49	0xbb2d4334	-0.0026437761
50	0xbcf2b96f	-0.029629437
51	0xbd91e2ae	-0.07123314
52	0x3bf13ab7	0.0073617357
53	0xbdbce698	-0.0922367
54	0xbd59fba7	-0.05321851
55	0xbd08336c	-0.033252165
56	0xbd3832ca	-0.04497031
57	0x3db36981	0.08760358
58	0xbc0d25cc	-0.0086149685
59	0x3dbfd421	0.09366632
60	0x3bc1b055	0.005910913
61	0xbd383c78	-0.044979542
62	0xbdc54d22	-0.096338525
63	0xbd814e98	-0.06313819
64	0x3d0e7367	0.034778025
65	0x3d23627a	0.039888836
66	0xbcada1a9	-0.02119525
67	0x3d93798b	0.07200917
68	0x3d6fddad	0.058561016
69	0x3d6b8e47	0.057508733
70	0x3d1b698b	0.03794245
71	0x3d4092ee	0.047015123
72	0xbad46101	-0.0016203226
73	0xbc2325ce	-0.009957744
74	0x3d95b1d7	0.07309311
75	0xbd63a08a	-0.055573024
76	0x3d94b5c7	0.07261234
77	0x3d97b5f9	0.074077554
78	0xbd89d6f6	-0.06730454
79	0xbcce67cd	-0.02519598
80	0x3c8666be	0.016406413
81	0x3c9ad818	0.01890187
82	0xbd92e048	-0.071716845
83	0xbd3b5ea0	-0.04574454
84	0xbd358649	-0.044317517
85	0xbb693690	-0.00355855
86	0x3bf98869	0.0076151383
87	0x3da77ca4	0.0817807
88	0xbd8c151f	-0.06839966
89	0x3d5a4867	0.053291705
90	0x3cd16c6b	0.025564393
91	0xbd959865	-0.073044576
92	0xbcb5d9d5	-0.022198597
93	0x3db247eb	0.087051235
94	0x3d8cc477	0.0687341
95	0x3d256de1	0.04038799
96	0xbdac5a55	-0.08415667
97	0x3cb1faac	0.021725975
98	0x3d836312	0.064153805
99	0xbcaa124c	-0.020760678
100	0xbcd12f92	-0.025535379
101	0x3db2f1eb	0.087375484
102	0xbd9ed3ea	-0.07755263
103	0x3d4a91ed	0.049455572
104	0xbdc88fa2	-0.09793021
105	0x3d62e223	0.055391442
106	0x3c634697	0.01387181
107	0xbda70160	-0.08154559
108	0xbdbcd163	-0.09219625
109	0x3d55c20c	0.05218701
110	0xbd9427e5	-0.07234172
111	0x3c9fa836	0.019489389
112	0xbd75795d	-0.059930194
113	0xbdb2fe19	-0.087398715
114	0xbcc8fb88	-0.024534002
115	0x3d64022d	0.055666137
116	0x3d2891ed	0.04115479
117	0x3d430b68	0.0476183
118	0x3d2d6726	0.0423347
119	0x3dcd3d8b	0.10021504
120	0xbbcac7fb	-0.0061883903
121	0xbd329d3b	-0.043606978
122	0xbda9243b	-0.082588635
123	0x3db768b4	0.089555174
124	0x3dbbe612	0.09174742
125	0x3daf3c88	0.08556467
126	0x3ae0e971	0.0017159415
127	0xbd778873	-0.060432862
128	0x3d28fc0a	0.04125599
129	0xbd7acee1	-0.06123245
130	0x3daa03cc	0.083015054
131	0x3c8c28ac	0.017109238
132	0x3dc00b4b	0.09377154
133	0x3caf8081	0.02142358
134	0xbd3324fe	-0.04373645
135	0x3cc03fb3	0.023467874
136	0xbdc456e2	-0.09586884
137	0xbcfe3ddf	-0.031035362
138	0x3d63b497	0.055592146
139	0x3be61fd9	0.0070228395
140	0x3db466d5	0.08808676
141	0xbc851cea	-0.016249139
142	0xbc15e8ed	-0.009149772
143	0xbc40dbbb	-0.011771138
144	0xbdc06532	-0.093943015
145	0x3d401b4e	0.04690104
146	0xbd5735e8	-0.052541643
147	0xbc9765a4	-0.018481083
148	0xbc280ba7	-0.010256684
149	0xbdbcfca0	-0.09227872
150	0x3d90564a	0.07047708
151	0x3d09e5a9	0.033666287
152	0x3da6ddb1	0.08147753
153	0xbcd2cdcd	-0.0257329
154	0x3d30d829	0.043174896
155	0x3d5489fb	0.0518894
156	0x3db38d9f	0.087672465
157	0x3dabeb57	0.08394497
158	0x3d268173	0.040650796
159	0xbd1ee2da	-0.03879056
160	0xbdb68d4f	-0.08913671
161	0xbca27ad4	-0.01983396
162	0xbbf313da	-0.007418138
163	0xbceccaf3	-0.028905367
164	0xbd2fd27f	-0.042925354
165	0x3d5fc704	0.054633155
166	0xbdac175d	-0.08402894
167	0x3da43dbb	0.08019587
168	0xbc8e0410	-0.017335922
169	0x3d53c62f	0.051702674
170	0x3d737ccf	0.0594452
171	0xbd7fa773	-0.06241555
172	0x3cac8dab	0.021063646
173	0xbdb5013d	-0.08838127
174	0x3cd01a63	0.025403207
175	0x3c78b3bb	0.01517957
176	0x3db9da4a	0.090748385
177	0xbb66c72e	-0.0035213935
178	0x3dada560	0.084788084
179	0x3d2f3e10	0.042783797
180	0xbd9f6108	-0.07782179
181	0xbd682a44	-0.056680933
182	0x3d8feeb2	0.070279494
183	0xbda7ec62	-0.08199383
184	0x3d6aeb10	0.05735308
185	0x3da3fdb3	0.08007374
186	0x3d90a693	0.070630215
187	0x3da97d25	0.082758226
188	0x3b286d8f	0.0025700068
189	0xbd27c7ba	-0.04096196
190	0xbd925c32	-0.07146491
191	0xbcc0a1bd	-0.023514623
192	0xbd7c3537	-0.061574187
193	0xbd3131c0	-0.043260336
194	0xbcaf0785	-0.02136589
195	0xbd0e075c	-0.034674987
196	0xbd07aa98	-0.033121675
197	0xbd633f57	-0.055480327
198	0x3cc7b39c	0.024377637
199	0x3daeb99f	0.08531498
200	0x3c5cbb33	0.013472366
201	0x3d93ea08	0.07222372
202	0xbd60f488	-0.054920703
203	0xbccbec9d	-0.0248931
204	0x3cbb3a45	0.022854934
205	0x3d791d5e	0.060819022
206	0x3da46141	0.08026362
207	0x3d79ac30	0.060955226
208	0x3ca02a52	0.01955143
209	0xbd13df2f	-0.036101516
210	0x3c6ca43f	0.014443456
211	0xbd913b89	-0.070914336
212	0xbd0a41e5	-0.03375425
213	0x3db112ac	0.086461395
214	0xbd11370f	-0.0354529
215	0x3dce592d	0.10075603
216	0xbda053c7	-0.07828479
217	0x3d716d4c	0.058942124
218	0x3cd21b62	0.025647823
219	0xbca4484c	-0.020054005
220	0x3d92b5bd	0.0716357
221	0x3db3aa32	0.087726966
222	0x3d76de48	0.060270578
223	0xbc58b8bd	-0.013227639
224	0xbbeacc98	-0.0071655028
225	0xbdbbb439	-0.09165234
226	0x3db315f8	0.087444246
227	0xbd22b1ee	-0.03972047
228	0xbdba9ce7	-0.09111958
229	0x3d451c30	0.048122585
230	0xbc7436ae	-0.014905615
231	0x3dc38f8e	0.09548865
232	0x3dc11433	0.09427681
233	0xbcf1336e	-0.029443469
234	0xbd8e07e6	-0.069351
235	0xbc143c50	-0.009047583
236	0xbd0cb555	-0.03435262
237	0xbd7b1199	-0.06129608
238	0x3d91b6dd	0.071149565
239	0x3d9397da	0.07206698
240	0xbd90a1af	-0.07062089
241	0x3dad5486	0.08463387
242	0x3d180b8f	0.037120398
243	0xbcf79e88	-0.03022696
244	0xbceb6681	-0.028735401
245	0x3d8d10f1	0.06887997
246	0xbc5f6778	-0.013635509
247	0xbd845903	-0.0646229
248	0x3d83863d	0.06422088
249	0x3d686322	0.056735165
250	0x3daf5935	0.08561937
251	0x3c05d78d	0.008169067
252	0x3d6af1a6	0.05735936
253	0xbc79f2cc	-0.015255641
254	0x3cbe5407	0.023233427
255	0x3d11563a	0.035482623

backbone.res0.0conv2.bias f4 [32]
0	0x3c85a6a3	0.01631481
1	0x3d2d8d38	0.042371005
2	0x3d5d76c0	0.054068327
3	0x3d8864d5	0.06659857
4	0x3d7671d9	0.060167167
5	0x3d679a1d	0.05654346
6	0x3c9ecb4d	0.01938405
7	0xb93a4a3c	-0.00017765997
8	0x3db55288	0.08853632
9	0x3d1f0f4b	0.038832944
10	0xbd6985e6	-0.05701246
11	0x3cd094e0	0.025461614
12	0x3d8639df	0.06554007
13	0x3d88fbd0	0.066886544
14	0x3c25272b	0.010080139
15	0x3d8957d8	0.06706208
16	0xbd39b7a7	-0.04534116
17	0xba9a241c	-0.0011760029
18	0xbc720ff6	-0.014774313
19	0xbd07a706	-0.03311827
20	0xbd10fc71	-0.035396997
21	0x3d96eda2	0.073695436
22	0x3c2ecf45	0.010669534
23	0xbdc0870c	-0.09400758
24	0xbd086f24	-0.033309117
25	0xbda93fff	-0.082641594
26	0xbd50ab3c	-0.05094455
27	0xbcae885c	-0.021305256
28	0xbd2921b9	-0.041291926
29	0x3d498645	0.049200315
30	0xbcaefcd5	-0.021360794
31	0xbd5ea08b	-0.054352324

backbone.res1.1bn.weight f4 [32]
0	0x3f7ee359	0.99565655
1	0x3f7ee37f	0.9956588
2	0x3f7eded7	0.99558777
3	0x3f7ee1a5	0.99563056
4	0x3f7ee362	0.9956571
5	0x3f7ee4f2	0.9956809
6	0x3f7ee0ef	0.9956197
7	0x3f7ee011	0.9956065
8	0x3f7ee0c4	0.99561715
9	0x3f7edce1	0.99555784
10	0x3f7ee037	0.99560875
11	0x3f7ee49c	0.9956758
12	0x3f7ee76a	0.9957186
13	0x3f7edf08	0.9955907
14	0x3f7ee27d	0.99564344
15	0x3f7edef6	0.9955896
16	0x3f7edde0	0.99557304
17	0x3f7ee061	0.99561125
18	0x3f7ee1dc	0.99563384
19	0x3f7edf02	0.9955903
20	0x3f7ee436	0.9956697
21	0x3f7edd73	0.99556655
22	0x3f7ee1ff	0.9956359
23	0x3f7ee87c	0.99573493
24	0x3f7ee023	0.99560755
25	0x3f7edc94	0.99555326
26	0x3f7ee309	0.9956518
27	0x3f7ee213	0.9956371
28	0x3f7ee182	0.9956285
29	0x3f7ee00e	0.9956063
30	0x3f7edfb0	0.9956007
31	0x3f7ee199	0.99562985

backbone.res1.1bn.bias f4 [32]
0	0xb856a348	-5.1173643e-05
1	0x3b44d6e5	0.0030035314
2	0x3a8972a0	0.0010486431
3	0x3b247ee5	0.002510005
4	0x3a20c58d	0.0006132953
5	0x3af1f80a	0.0018460762
6	0x3aed8679	0.0018121741
7	0x3b39cb3f	0.0028349904
8	0x3b01259a	0.001970625
9	0x3b0b5545	0.0021260541
10	0x3af09305	0.0018354362
11	0x3af63675	0.001878454
12	0x3b461ee0	0.0030230805
13	0x3b6b416f	0.0035897156
14	0x3b4e3a70	0.0031467937
15	0x3b1e0056	0.0024109087
16	0x3aebde94	0.0017995411
17	0xbad3f27f	-0.0016170292
18	0xb91ba386	-0.00014842869
19	0xb80e98ac	-3.3997625e-05
20	0x3b2c4a09	0.0026289246
21	0x3b14815f	0.002266012
22	0xbad8593f	-0.001650609
23	0x3b1a286d	0.002352263
24	0x3afb92cb	0.0019193528
25	0x3b488d46	0.0030601784
26	0x39b0b69b	0.00033705388
27	0x3b1bad83	0.0023754544
28	0x3b3e516a	0.0029040226
29	0x3b54368a	0.003238114
30	0x3b65e28f	0.0035077666
31	0x3b284897	0.0025678033

backbone.res1.1bn.running_mean f4 [32]
0	0x3f334c54	0.7003834
1	0x3f3046c4	0.6885798
2	0x3ee894ce	0.4542603
3	0x3e902493	0.28152904
4	0x3e0443ae	0.12916443
5	0x3eee4b06	0.46541613
6	0x3e6d85ae	0.23195526
7	0x3e70be69	0.23510136
8	0x3f45e1d8	0.77297735
9	0x3f366426	0.71246564
10	0x3f13d601	0.5774842
11	0x3e4e3ae6	0.20139655
12	0x3edefd57	0.43552658
13	0x3ebb7c45	0.36618248
14	0x3f7da028	0.99072504
15	0x3eb89437	0.3605058
16	0x3e79713e	0.24359605
17	0x3f3151d1	0.69265467
18	0x3e3d9ea7	0.18517552
19	0x3f2afb67	0.6678986
20	0x3f186ac2	0.595379
21	0x3e9e1d90	0.3088193
22	0x3eb49cba	0.35275823
23	0x3e99a0de	0.30005544
24	0x3f0e38ee	0.5555562
25	0x3f16a9b6	0.5885271
26	0x3d2218c1	0.03957439
27	0x3eaebcc2	0.34128386
28	0x3d8585e0	0.06519675
29	0x3f317446	0.69318044
30	0x3f157482	0.583809
31	0x3efe85c2	0.49711424

backbone.res1.1bn.running_var f4 [32]
0	0x3e83d817	0.257508
1	0x3f0fe472	0.56207955
2	0x3e82f2ec	0.2557596
3	0x3ec72712	0.38896996
4	0x3f88f344	1.0699239
5	0x3ead7282	0.33876425
6	0x3e8c7a3c	0.27437007
7	0x3f558794	0.8341
8	0x3fa202cd	1.2657105
9	0x3e8c61b5	0.27418295
10	0x3e838faa	0.25695544
11	0x3ebea97e	0.37238687
12	0x3e92c291	0.28664067
13	0x3f2806eb	0.65635556
14	0x4020387a	2.503447
15	0x3f80d416	1.0064723
16	0x3ec29493	0.38003978
17	0x3ee6a492	0.45047432
18	0x3f79b077	0.9753489
19	0x3eb434b8	0.3519647
20	0x3efe40dc	0.4965886
21	0x3e8737ee	0.26409858
22	0x3f9eb5db	1.2399248
23	0x3e88e66c	0.26738298
24	0x4030e1b8	2.7637768
25	0x3f25cfb9	0.64770085
26	0x3ea0bf3e	0.31395906
27	0x3e07af22	0.13250402
28	0x3ea613ed	0.32437077
29	0x3e2d06d9	0.16897143
30	0x3e294a7a	0.16532317
31	0x3f49027e	0.7851943

backbone.res1.1conv1.weight f4 [32, 32, 3]
0	0x3d81ebab	0.06343778
1	0x3d4cce4b	0.050001424
2	0x3d0b959a	0.034078218
3	0xbc550998	-0.013002776
4	0x3c12d775	0.008962502
5	0x3a42c611	0.0007430027
6	0x3dc76272	0.09735574
7	0xbdaaf494	-0.08347431
8	0xbc211c28	-0.009833373
9	0x3c7d6a71	0.015467272
10	0x3d81954a	0.06327303
11	0x3d8d41a8	0.068972886
12	0x3d998af4	0.07497206
13	0x3d664cce	0.05622559
14	0x3d82a566	0.063792035
15	0xbb7a10fe	-0.00381571
16	0xbcc30877	-0.023807747
17	0xbc54b321	-0.012982161
18	0xbdba8755	-0.09107844
19	0xbcc6305e	-0.024192985
20	0x3c2e9f13	0.010658043
21	0x3d714369	0.058902178
22	0xbd581f51	-0.05276424
23	0x3d7bf6a6	0.06151452
24	0x3d2b5b04	0.041834846
25	0xbd9bea52	-0.076130524
26	0x3db73620	0.089458704
27	0xbd998341	-0.07495738
28	0xbc4ec574	-0.012620319
29	0xbd8e08ca	-0.0693527
30	0x3cea5e2d	0.02860936
31	0xbd7ffbcc	-0.06249599
32	0xbd8f606c	-0.07000813
33	0xbc9e4404	-0.019319542
34	0x3c19f091	0.009395734
35	0x3959eaa4	0.00020782143
36	0xbc3aee71	-0.011409388
37	0xbd23276b	-0.039832514
38	0x3d6e39cb	0.058160584
39	0x3ce54104	0.027985103
40	0xbdbef9de	-0.09325002
41	0xbdbd66bd	-0.092481114
42	0x3cacbf48	0.021087304
43	0xbdb69978	-0.089159906
44	0x3d4792ad	0.048723865
45	0x3c6af699	0.01434102
46	0xbb1834ae	-0.002322476
47	0x3d4a65a4	0.04941334
48	0xbdc88ada	-0.09792109
49	0x3d6c34e7	0.05766764
50	0x3d329c05	0.043605823
51	0xbda3e5d4	-0.080028206
52	0xbb510d3e	-0.0031898762
53	0x3cae3ea0	0.021270096
54	0xbd4b8830	-0.049690425
55	0xbdb1fc0c	-0.08690652
56	0x3d975b4a	0.07390459
57	0xbb6a6d3b	-0.0035770673
58	0x3c954fff	0.018226622
59	0x3cc7b78b	0.024379512
60	0xbda17da5	-0.07885293
61	0xbdb0aee0	-0.08627105
62	0xbd36a42b	-0.044590157
63	0xbda0a2fb	-0.07843586
64	0xbd35df52	-0.044402428
65	0xbd80d61f	-0.0629084
66	0xbbafdfac	-0.00536724
67	0xba948147	-0.0011330032
68	0xbd816e64	-0.063198835
69	0x3dbdb796	0.09263532
70	0xbd1bc485	-0.038029213
71	0x3b098dc9	0.0020989052
72	0xbdb4012e	-0.087892875
73	0xba00efd4	-0.00049185497
74	0x3daa814a	0.08325441
75	0x3cd706a6	0.026248287
76	0xbd84e1bf	-0.0648837
77	0x3d0665bf	0.032811876
78	0x3c55a859	0.0130406255
79	0xbbeb7e57	-0.0071866917
80	0x3db7c788	0.089736044
81	0xbc91a4da	-0.017778803
82	0x3d7d7a67	0.06188431
83	0xbd95483c	-0.07289168
84	0xbd9a01d0	-0.07519877
85	0xbd3d4ee8	-0.04621783
86	0xbd4fb663	-0.050711047
87	0xbb213b15	-0.0024601866
88	0xbd458f66	-0.04823246
89	0x3d850024	0.064941674
90	0xbcf52ce2	-0.029928628
91	0xbd9a6ec3	-0.07540657
92	0xbc2b98c1	-0.010473431
93	0x3d79c24d	0.060976315
94	0xbd9eddcc	-0.07757148
95	0xbd7e734e	-0.062121682
96	0x3d23d165	0.039994616
97	0xbd60ad49	-0.054852758
98	0xbd1316da	-0.035910465
99	0x3dbe74ef	0.09299647
100	0x3d20057c	0.03906773
101	0xbc6125e4	-0.013741944
102	0xbdabc6d0	-0.0838753
103	0xbdc15eaf	-0.094418876
104	0x3dbe2b22	0.09285571
105	0x3ca6d8d2	0.02036706
106	0xbcf96c1c	-0.030447058
107	0x3cde1f4b	0.027114531
108	0xbdd14d16	-0.10219781
109	0x3d68d29c	0.056841478
110	0xbbcc9e02	-0.006244422
111	0xbd6e4e1f	-0.05817997
112	0xbc062d1b	-0.008189465
113	0x3d9ae5d5	0.07563368
114	0xbcad1671	-0.021128865
115	0x3dc1adc8	0.09456974
116	0x3d3c3005	0.045944232
117	0xbd941076	-0.07229702
118	0x3dca623f	0.0988202
119	0xbd34ce86	-0.04414227
120	0xbdcd113e	-0.10013054
121	0xbd9e36d6	-0.07725303
122	0xbcb757ef	-0.022380797
123	0xbd9bbc2f	-0.076042525
124	0xbdb71104	-0.08938792
125	0xbc8c9a0d	-0.0171633
126	0x3dc44d1f	0.09585022
127	0xbd750095	-0.05981501
128	0xbdb6e6db	-0.08930751
129	0x3daa2210	0.08307278
130	0xbb93faa0	-0.004515961
131	0x3d9a6973	0.07539644
132	0xbd013d3c	-0.03155254
133	0x3d53f17f	0.05174398
134	0xbb15e08b	-0.0022869434
135	0x3d190ac6	0.03736379
136	0xbd4210c2	-0.047379263
137	0x3d8d0554	0.06885782
138	0xbd1cace0	-0.038250804
139	0x3b4d51aa	0.0031329193
140	0x3d871b7e	0.065970406
141	0xbd80bc78	-0.062859476
142	0xbd8e30ac	-0.06942877
143	0x3cc60fc7	0.024177445
144	0xbd49b942	-0.04924894
145	0x3d46254f	0.048375424
146	0xbd82ffff	-0.06396484
147	0xbd4966c9	-0.04917029
148	0xbd6b7749	-0.057486806
149	0x3da215a5	0.079142846
150	0xbc5b7c60	-0.0133963525
151	0x3d94ba6b	0.07262119
152	0xbdaa5a20	-0.08317971
153	0xbd156196	-0.03647002
154	0x3d36f4c7	0.04466703
155	0xbd12bc5e	-0.035824172
156	0x3d06c821	0.0329057
157	0xbd976737	-0.073927335
158	0xbd93853f	-0.07203149
159	0xbd40941a	-0.04701624
160	0x3c512822	0.012765916
161	0x3d5fd5c3	0.05464722
162	0x3d1ae927	0.037820008
163	0xbc5326c7	-0.012887663
164	0xbd921e90	-0.071347356
165	0x3d76ae66	0.060224913
166	0xbd374582	-0.044744022
167	0x3d7e534d	0.06209116
168	0xbce8209a	-0.028335858
169	0xbb20fc9d	-0.0024564632
170	0x3d4158e6	0.04720392
171	0xbd521a27	-0.051294472
172	0x3dbd49a8	0.092425644
173	0x3c8d60fe	0.017258164
174	0x3c408e4e	0.011752678
175	0x3cdaf228	0.026726797
176	0x3d26906c	0.040665075
177	0xbc9d5eb3	-0.019210195
178	0xbc90df89	-0.017684715
179	0x3d9ad9a2	0.075610414
180	0x3c83f838	0.01610957
181	0x3dc6d976	0.09709446
182	0xbcd57fd1	-0.026061924
183	0xbba89efe	-0.0051459065
184	0xbd873746	-0.066023394
185	0xbbea1611	-0.007143744
186	0x3dcce10b	0.10003861
187	0x3d8c6d13	0.06856742
188	0x3d6084b4	0.054814056
189	0x3d8c31bc	0.068454236
190	0x3da94c93	0.082665585
191	0xbd5faa31	-0.054605667
192	0x3d5e5930	0.054284275
193	0xbdc7de9d	-0.09759257
194	0x3dc6c109	0.09704787
195	0x3d03f310	0.032214224
196	0x3d78e39b	0.060763936
197	0x3da3f35d	0.08005402
198	0xbd9649b6	-0.07338278
199	0xbd8c6679	-0.068554826
200	0x3b3ffd92	0.0029295427
201	0x3a537ecc	0.00080679054
202	0x3d8ebbf2	0.069694415
203	0x3d8273ef	0.06369769
204	0x3db8de9a	0.09026833
205	0x3d40425a	0.046938278
206	0xbcb46750	-0.02202192
207	0xbd449d39	-0.0480015
208	0xbd01ea3f	-0.031717535
209	0xbdadeeef	-0.084928386
210	0x3db6a6d3	0.08918538
211	0xbca38f36	-0.01996575
212	0x3c93a451	0.018022688
213	0xbdafd1ee	-0.08584963
214	0xbd45d84a	-0.048301972
215	0x3d225cd6	0.039639316
216	0x3c951ec2	0.018203143
217	0xbd65e523	-0.056126725
218	0x3d696fbb	0.05699132
219	0x3d84e513	0.06489005
220	0x3ce93efb	0.028472414
221	0xbc424a1b	-0.011858488
222	0xbd04fe8e	-0.032469325
223	0x3d7fc5f5	0.062444646
224	0x3d3ced5f	0.046124812
225	0xbd831e31	-0.06402243
226	0x3d9d7b51	0.07689536
227	0x3d80a8c2	0.06282188
228	0x3d1218b8	0.035668105
229	0xbd6bb7dd	-0.057548393
230	0xbcb934ea	-0.02260824
231	0xbcd1abff	-0.02559471
232	0xba7c7594	-0.00096305576
233	0x3d16d749	0.036826406
234	0xbd9a1cb0	-0.07525003
235	0xbd0d260d	-0.034460116
236	0xbd120c12	-0.035656042
237	0xbd4da1a1	-0.05020297
238	0x3d249f2a	0.040190853
239	0x3d99c12e	0.07507549
240	0xbc628233	-0.013824987
241	0xbcedac23	-0.029012745
242	0x3d3f9145	0.0467694
243	0xbd200786	-0.039069675
244	0x3b8ba84d	0.0042620064
245	0x3d5ac04f	0.053406056
246	0x3dc52392	0.09625925
247	0x3d58eadc	0.052958354
248	0xbd85e36e	-0.065375194
249	0x3b58daf5	0.0033089493
250	0xbd8e6d32	-0.06954421
251	0xbd4f78b8	-0.050652236
252	0xbd7dbb07	-0.06194594
253	0xbd5e731f	-0.054309007
254	0xbd90363b	-0.07041594
255	0x3c45dcc0	0.012076557

backbone.res1.1+bn.weight f4 [32]
0	0x3f7ee0dc	0.9956186
1	0x3f7ee034	0.99560857
2	0x3f7ee1c5	0.99563247
3	0x3f7edf20	0.9955921
4	0x3f7ee383	0.99565905
5	0x3f7ee054	0.9956105
6	0x3f7ee30d	0.995652
7	0x3f7ee716	0.9957136
8	0x3f7eeb8b	0.9957816
9	0x3f7edd35	0.99556285
10	0x3f7ee4e6	0.9956802
11	0x3f7ede26	0.9955772
12	0x3f7ee53e	0.99568546
13	0x3f7ee0fc	0.9956205
14	0x3f7ee007	0.9956059
15	0x3f7edde3	0.9955732
16	0x3f7ee66c	0.99570346
17	0x3f7edea1	0.99558455
18	0x3f7ee228	0.9956384
19	0x3f7edf5a	0.9955956
20	0x3f7edf4f	0.9955949
21	0x3f7edaba	0.995525
22	0x3f7ee0fc	0.9956205
23	0x3f7ee606	0.9956974
24	0x3f7edf94	0.99559903
25	0x3f7ee18e	0.9956292
26	0x3f7ee5ad	0.9956921
27	0x3f7eda21	0.9955159
28	0x3f7ee1b6	0.9956316
29	0x3f7ee128	0.9956231
30	0x3f7ee5de	0.995695
31	0x3f7ee061	0.99561125

backbone.res1.1+bn.bias f4 [32]
0	0x3b1d2e54	0.0023983913
1	0x3b454f4c	0.003010708
2	0x3b38589b	0.0028128985
3	0x3b61c185	0.0034447622
4	0x3b1fbefe	0.0024375315
5	0x3b623703	0.0034517653
6	0x3a93ac9a	0.0011266649
7	0xbb21b3e9	-0.0024673885
8	0xbb640988	-0.003479572
9	0x3b60ea0b	0.0034319188
10	0x3b2006ff	0.0024418232
11	0x3b570d29	0.003281424
12	0x3b22f91d	0.0024867721
13	0x3af83914	0.0018937909
14	0x3b41d3a8	0.002957562
15	0x3b6440f3	0.0034828752
16	0x3b3e19d2	0.002900709
17	0x3b5c2476	0.0033591068
18	0x3b4401e2	0.0029908349
19	0x3b639ec7	0.003473209
20	0x3b418a3b	0.0029531855
21	0x3b59f4e4	0.0033257538
22	0x3b5dfbc6	0.0033871992
23	0xbac0c406	-0.0014706857
24	0x3b3ff35a	0.0029289336
25	0x3af94961	0.0019019061
26	0x3b2902ca	0.0025789016
27	0x3b2d7e74	0.0026473077
28	0x3b020d06	0.0019844188
29	0x3b310dc3	0.002701626
30	0x3b12dd97	0.002240991
31	0x3b41d74c	0.002957779

backbone.res1.1+bn.running_mean f4 [32]
0	0xbe420e01	-0.18950655
1	0x3d890524	0.066904336
2	0x3d353000	0.04423523
3	0xbecb8e83	-0.39757165
4	0xbcb24b0b	-0.021764299
5	0xbe773a81	-0.24143411
6	0x3e8341c4	0.25636113
7	0x3e3a8c1c	0.1821751
8	0x3e2dfb2e	0.16990349
9	0xbe7f47f8	-0.24929798
10	0x3d4ebf43	0.05047537
11	0xbd846fcd	-0.06466637
12	0x3ec20147	0.378916
13	0x3bb6f0d7	0.0055829096
14	0xba206b46	-0.00061195006
15	0xbecf1d2d	-0.40451947
16	0x3e86074d	0.26177445
17	0x3d1ade1f	0.037809487
18	0xbe711019	-0.23541297
19	0x3cce7071	0.0252001
20	0x3dcf7507	0.10129743
21	0xbd635cbd	-0.055508364
22	0xbbd310fc	-0.0064412337
23	0x3e82268c	0.25420034
24	0xbe6c404a	-0.230714
25	0xbe53dae7	-0.20688973
26	0x3da2ed4b	0.07955416
27	0xbdc8f911	-0.09813131
28	0x3c7b54b3	0.015340018
29	0xbb565c82	-0.0032708948
30	0x3eafad02	0.34311682
31	0xbe1a49f0	-0.15067267

backbone.res1.1+bn.running_var f4 [32]
0	0x3e0e00d7	0.13867508
1	0x3e0b03be	0.13575646
2	0x3dd7f463	0.1054466
3	0x3e013d0a	0.12620941
4	0x3df01866	0.11723404
5	0x3f268873	0.65051955
6	0x3e85b93a	0.2611788
7	0x3e71bdef	0.2360761
8	0x3e00d1e1	0.12580062
9	0x3daad3e7	0.083411984
10	0x3d907ffa	0.070556596
11	0x3e643ec3	0.22289567
12	0x3dd0729d	0.10178111
13	0x3e3085f3	0.17238598
14	0x3dd7faad	0.105458595
15	0x3de17d3c	0.11010215
16	0x3d964d7f	0.07339
17	0x3dcc0a51	0.09962905
18	0x3e0e1054	0.13873416
19	0x3d753f61	0.059874896
20	0x3d8373f8	0.06418604
21	0x3e0d5074	0.13800222
22	0x3ec53110	0.38513994
23	0x3dfef9e0	0.124500036
24	0x3e0e4ae7	0.1389576
25	0x3dffd91a	0.12492581
26	0x3da39c08	0.07988745
27	0x3e940de4	0.28916848
28	0x3d8accd8	0.06777352
29	0x3dd95a18	0.10612887
30	0x3deffeb2	0.11718501
31	0x3e0c8b3c	0.13724989

backbone.res1.1conv2.weight f4 [64, 32, 3]
0	0xbd50aac8	-0.05094412
1	0x3cb86331	0.022508236
2	0x3d6d859e	0.057988755
3	0xbd17cc10	-0.037059844
4	0xbcecb23c	-0.028893583
5	0x3d7755ed	0.06038468
6	0x3d72441a	0.059146978
7	0x3d34621c	0.044038877
8	0xbdbfd7c4	-0.09367326
9	0x3d644f54	0.055739716
10	0x3ccb3b57	0.024808569
11	0x3a8ef380	0.0010906309
12	0x3d79228b	0.06082396
13	0x3b9f55e0	0.004862532
14	0x3d32b73b	0.043631773
15	0xbdaa9c2e	-0.0833057
16	0x3d1cd2cb	0.038286965
17	0x3cd7e1c6	0.026352774
18	0x3daa4145	0.083132304
19	0x3cf52b57	0.029927893
20	0xbd2576fc	-0.040396675
21	0xbc00dbf6	-0.007864943
22	0x3c81b933	0.01583538
23	0x3bc57f05	0.006027105
24	0xbc27bf24	-0.010238443
25	0x3d84832f	0.06470334
26	0xbdaa759d	-0.08323214
27	0xbc8bf9dd	-0.017086918
28	0xbd9569a9	-0.07295544
29	0x3ccde21f	0.025132237
30	0x3d99d01a	0.07510395
31	0x3dc05e46	0.09392981
32	0x3c383666	0.011243438
33	0x3c59a185	0.013283138
34	0xbd4f5be2	-0.050624736
35	0xbd3d7b7a	-0.046260335
36	0x3d9f06ce	0.0776497
37	0x3d088631	0.0333311
38	0x3dbf892f	0.093523376
39	0x3cb2b257	0.021813555
40	0xbd91ef12	-0.07125677
41	0x3da08ff6	0.07839958
42	0xbc79e081	-0.01525128
43	0xbcdfcb51	-0.027318629
44	0x3d64098c	0.055673167
45	0xbdbfea59	-0.0937087
46	0xbcd49f47	-0.025954856
47	0x3daeb681	0.085309036
48	0xbd98e59e	-0.07465671
49	0xbdc1f219	-0.094700046
50	0xbd91951b	-0.07108518
51	0xbd9260e1	-0.071473844
52	0xbd239a80	-0.039942265
53	0x3cff767e	0.031184431
54	0x3d422819	0.04740152
55	0x3d6d5933	0.057946395
56	0xbcabc4ed	-0.020967925
57	0xbd86284e	-0.06550656
58	0xbd9a4c74	-0.075341135
59	0x3dc74e29	0.09731705
60	0x3cba59c8	0.02274789
61	0x3d7b9d5a	0.06142936
62	0x3d2b5078	0.041824788
63	0xbd7a685d	-0.061134685
64	0xbdd09367	-0.10184365
65	0xbdb34246	-0.08752875
66	0x3d2873c9	0.041126046
67	0x3c21cf02	0.009876015
68	0xbce1d0a4	-0.027565308
69	0xbd3b4889	-0.04572347
70	0xbdb996d1	-0.09061969
71	0xbca31a4f	-0.019910006
72	0xbd998516	-0.07496087
73	0x3cc050cd	0.023476029
74	0xbda9210f	-0.082582586
75	0x3da69a24	0.08134869
76	0xbd274dcc	-0.040845677
77	0x3d9632ab	0.07333883
78	0x3d08b0ce	0.03337174
79	0xb95ee0b1	-0.00021255274
80	0xbc8585c7	-0.016299142
81	0xbd1dfcd0	-0.03857118
82	0xbd5688b5	-0.052376468
83	0xbd91a95a	-0.07112379
84	0xbd8f6e35	-0.07003442
85	0x3cfaa142	0.030594472
86	0x3d9c5f96	0.07635419
87	0x3d9597fa	0.07304378
88	0xba77fde2	-0.0009460134
89	0x3d95cee4	0.07314852
90	0xbdc1e236	-0.094669744
91	0x3d93d74e	0.072188005
92	0x3cce041e	0.025148448
93	0xbdb443d3	-0.08801999
94	0x3d1c9afd	0.038233746
95	0x3d094670	0.03351444
96	0xbd8ffe83	-0.07030966
97	0xbd949f56	-0.072569534
98	0x3d152bb7	0.036418643
99	0x3d648a9d	0.055796254
100	0x3d77798e	0.060418658
101	0x3cce3913	0.0251737
102	0xbc6fcce0	-0.014636248
103	0xbcdf5d4f	-0.027266173
104	0xbc3a5dc9	-0.011374899
105	0xbdb74ced	-0.08950219
106	0xbd3c9bbc	-0.046046957
107	0xbd3685d9	-0.04456124
108	0x3d0c7c89	0.034298453
109	0x3cc9bc17	0.024625821
110	0x3c29f490	0.01037325
111	0xbd49a876	-0.049232922
112	0xbdb29577	-0.087199144
113	0xbc9e188e	-0.019298818
114	0xbd99ad19	-0.07503719
115	0x3c15fe69	0.009154894
116	0x3d03de98	0.032194704
117	0x3be9b4b7	0.0071321386
118	0xbc8fdf8a	-0.017562646
119	0xbdb63a99	-0.08897895
120	0x3ba2097d	0.0049449787
121	0xbd990f24	-0.07473591
122	0x3d1df588	0.038564235
123	0x3c342de9	0.010997274
124	0xbdc7cd17	-0.09755915
125	0xbd052400	-0.032505035
126	0xbc8f7865	-0.017513463
127	0x3d71033c	0.058840975
128	0x3d7a8a05	0.061166782
129	0xbbd4ae5c	-0.006490512
130	0x3d3610ce	0.04444962
131	0xbdc27d76	-0.09496586
132	0x3d208a10	0.039194167
133	0xbd958c7d	-0.07302187
134	0xbd4f4875	-0.05060621
135	0xbd918a88	-0.07106501
136	0xbbde69e5	-0.006787526
137	0x3d83cbed	0.0643538
138	0xbdc22d17	-0.094812565
139	0xbdc123a5	-0.09430627
140	0xbbd615dc	-0.0065333676
141	0xbd3c0065	-0.045898814
142	0x3b142b3c	0.0022608778
143	0x3ccc46b2	0.024936054
144	0xbcb6655d	-0.02226513
145	0xbc6ab720	-0.014325887
146	0xbd4ded17	-0.050274935
147	0x3d5ad9ea	0.053430475
148	0x3d8124c9	0.06305844
149	0x3b8ad152	0.0042363787
150	0xbc9e5510	-0.01932767
151	0x3da9709c	0.08273432
152	0xbc968c1b	-0.018377354
153	0x3c7b93f8	0.015355103
154	0x3d357ea9	0.044310246
155	0x3d8427b8	0.06452888
156	0xbcaa84f5	-0.020815352
157	0x3db9b353	0.090674065
158	0x3cc6c0c2	0.024261836
159	0x3d086266	0.033296965
160	0xbdac1101	-0.08401681
161	0x3dbbe108	0.09173781
162	0xbd9e5f97	-0.07733076
163	0x3ce49192	0.027901445
164	0x3d8d3736	0.06895296
165	0x3b9d3ce4	0.0047985185
166	0x3da32932	0.07966842
167	0xbd96cf3d	-0.07363746
168	0x3d183520	0.03716004
169	0x3ceaca8f	0.02866104
170	0xbda71540	-0.0815835
171	0x3db57ff1	0.088622935
172	0x3b14c527	0.002270052
173	0x3dac3c7c	0.08409974
174	0xbd47008c	-0.048584506
175	0x3b108b5e	0.0022055726
176	0x3c4e2a22	0.012583287
177	0xbdaba0cb	-0.08380278
178	0xbd99139e	-0.07474445
179	0xbb920be0	-0.004456982
180	0xbc835ae0	-0.016034544
181	0xbc566f5b	-0.013088073
182	0xbd401ab0	-0.04690045
183	0x3d011ecd	0.031523515
184	0x3c865518	0.016397998
185	0xbd537b5e	-0.051631324
186	0x3c3de4cd	0.011590195
187	0x3cedabbd	0.029012555
188	0x3cd35e33	0.025801754
189	0xbcf292cb	-0.029611012
190	0x3d7072ba	0.05870316
191	0xbd5010af	-0.05079716
192	0x3ca2810c	0.019836925
193	0xbd54f29e	-0.05198919
194	0x3cfe03c0	0.031007648
195	0x3d94d9ab	0.07268079
196	0x3db98d5d	0.09060166
197	0xbdaf82fa	-0.08569904
198	0xbd1d1f9c	-0.038360223
199	0x3dc02cdf	0.093835585
200	0xbd2a9565	-0.04164638
201	0x3db6277e	0.08894251
202	0x3d95bf4e	0.07311879
203	0x3d71e42d	0.059055496
204	0x3caec5d4	0.021334566
205	0x3d921b29	0.07134087
206	0x3d8aa92b	0.067705475
207	0x3d667c87	0.056271102
208	0x3dc8edc6	0.09810977
209	0x3da07b5b	0.07836028
210	0x3ce32a0b	0.027730009
211	0xbce1f410	-0.027582198
212	0xbd961198	-0.073275745
213	0x3dbc1077	0.09182828
214	0xbaaa98e6	-0.0013015538
215	0xbdc06fee	-0.09396349
216	0x3d5abc7f	0.05340242
217	0xbd3bc2fc	-0.04584025
218	0x3db99125	0.09060887
219	0x3bfe39f6	0.0077583743
220	0x3d7e6549	0.06210831
221	0xbda6a17c	-0.081362695
222	0xbb8114ad	-0.0039392323
223	0x3d6d0e2e	0.05787485
224	0xbcd5715c	-0.02605503
225	0xbd8c300d	-0.068451025
226	0x3d9c225d	0.07623742
227	0xbd6abc1f	-0.057308313
228	0x3dbb8377	0.09155934
229	0x3d1ee5c7	0.03879335
230	0xbd4b5c07	-0.04964831
231	0xbd06ba40	-0.032892466
232	0x3cb3c685	0.021945247
233	0xbd33e93a	-0.043923594
234	0xbd602997	-0.054727163
235	0x3da498b4	0.08036938
236	0x3ceeda6a	0.029156882
237	0x3da15bb4	0.07878819
238	0x3da8e83f	0.082474224
239	0x3cf497b7	0.0298575
240	0xbd890faf	-0.066924445
241	0xbdb76873	-0.08955469
242	0x3d578a19	0.052621935
243	0xbd7987b6	-0.06092044
244	0x3cf1ef34	0.029533006
245	0xbd88466e	-0.066540584
246	0x3dba231d	0.090887286
247	0x3dc2ef43	0.09518292
248	0x3bc3e66f	0.0059783976
249	0x3d700672	0.058599897
250	0xbbec42d3	-0.0072101145
251	0xbd816f0c	-0.06320009
252	0x3db54765	0.08851508
253	0xbd9c174f	-0.07621633
254	0x3ba347ec	0.004982939
255	0x3d9be499	0.07611961

backbone.res1.1conv2.bias f4 [64]
0	0xbd495cb3	-0.04916067
1	0xbd73bc3b	-0.059505682
2	0xbdb16b1d	-0.08663008
3	0x3cbc46be	0.022982951
4	0x3db88efd	0.09011648
5	0x3d83b0db	0.06430217
6	0x3daf47bc	0.08558604
7	0x3cc785ea	0.024355847
8	0xbc3f9795	-0.011693855
9	0xbdaad892	-0.08342089
10	0xbba20f9b	-0.004945708
11	0x3dc23a4a	0.09483774
12	0x3d876f17	0.066129856
13	0xbdbe399a	-0.092883304
14	0xbba1d562	-0.0049387673
15	0xbd94307f	-0.072358124
16	0xbd9c259f	-0.07624363
17	0x3d96f08c	0.073700994
18	0xbd07f40a	-0.03319172
19	0xbdb6fef7	-0.089353494
20	0xbdaf43c4	-0.08557847
21	0x3dbba008	0.09161383
22	0xbc2a7ecd	-0.010406208
23	0xbd671e4d	-0.05642538
24	0xbd6ce42c	-0.05783479
25	0xbd16d70f	-0.03682619
26	0x3c2940f9	0.010330432
27	0xbdbeb9d4	-0.09312788
28	0x3d106c7e	0.035259716
29	0xbd7b4265	-0.061342616
30	0x3c97615b	0.01847904
31	0x3c3b75aa	0.0114416275
32	0x3d73e3ac	0.059543297
33	0x3a5c2435	0.0008397729
34	0x3c769537	0.015050224
35	0x3d8292fa	0.0637569
36	0x3c9b19f8	0.018933281
37	0xbd85202c	-0.06500277
38	0x3d78f15c	0.060777053
39	0x3db0e95b	0.08638259
40	0x3d8437a2	0.064559236
41	0x3d0e2d50	0.034711182
42	0x3d11af3c	0.035567507
43	0xbc4723f4	-0.012154568
44	0x3d7d2e12	0.061811514
45	0xbd70f7fd	-0.05883025
46	0x3d52fd2f	0.051510986
47	0xbd641174	-0.055680707
48	0xbd4ca9e8	-0.049966723
49	0xbdc43120	-0.09579682
50	0xbcb777d6	-0.02239601
51	0xbd945522	-0.072428
52	0xba2ee834	-0.0006672174
53	0xbd925499	-0.07145042
54	0x3dc3e5dd	0.09565327
55	0x3bab9157	0.0052358317
56	0x3afc63cc	0.0019255816
57	0xbcd54cdb	-0.026037624
58	0x3b7f08d3	0.0038915172
59	0x3db97e76	0.09057324
60	0x3c471833	0.012151766
61	0x3d9d35a4	0.07676247
62	0x3d0ad474	0.033894017
63	0xbbb7bc9f	-0.005607202

backbone.res2.2bn.weight f4 [64]
0	0x3f800000	1.0
1	0x3f800000	1.0
2	0x3f800000	1.0
3	0x3f800000	1.0
4	0x3f800000	1.0
5	0x3f800000	1.0
6	0x3f800000	1.0
7	0x3f800000	1.0
8	0x3f800000	1.0
9	0x3f800000	1.0
10	0x3f800000	1.0
11	0x3f800000	1.0
12	0x3f800000	1.0
13	0x3f800000	1.0
14	0x3f800000	1.0
15	0x3f800000	1.0
16	0x3f800000	1.0
17	0x3f800000	1.0
18	0x3f800000	1.0
19	0x3f800000	1.0
20	0x3f800000	1.0
21	0x3f800000	1.0
22	0x3f800000	1.0
23	0x3f800000	1.0
24	0x3f800000	1.0
25	0x3f800000	1.0
26	0x3f800000	1.0
27	0x3f800000	1.0
28	0x3f800000	1.0
29	0x3f800000	1.0
30	0x3f800000	1.0
31	0x3f800000	1.0
32	0x3f800000	1.0
33	0x3f800000	1.0
34	0x3f800000	1.0
35	0x3f800000	1.0
36	0x3f800000	1.0
37	0x3f800000	1.0
38	0x3f800000	1.0
39	0x3f800000	1.0
40	0x3f800000	1.0
41	0x3f800000	1.0
42	0x3f800000	1.0
43	0x3f800000	1.0
44	0x3f800000	1.0
45	0x3f800000	1.0
46	0x3f800000	1.0
47	0x3f800000	1.0
48	0x3f800000	1.0
49	0x3f800000	1.0
50	0x3f800000	1.0
51	0x3f800000	1.0
52	0x3f800000	1.0
53	0x3f800000	1.0
54	0x3f800000	1.0
55	0x3f800000	1.0
56	0x3f800000	1.0
57	0x3f800000	1.0
58	0x3f800000	1.0
59	0x3f800000	1.0
60	0x3f800000	1.0
61	0x3f800000	1.0
62	0x3f800000	1.0
63	0x3f800000	1.0

backbone.res2.2bn.bias f4 [64]
0	0x00000000	0.0
1	0x00000000	0.0
2	0x00000000	0.0
3	0x00000000	0.0
4	0x00000000	0.0
5	0x00000000	0.0
6	0x00000000	0.0
7	0x00000000	0.0
8	0x00000000	0.0
9	0x00000000	0.0
10	0x00000000	0.0
11	0x00000000	0.0
12	0x00000000	0.0
13	0x00000000	0.0
14	0x00000000	0.0
15	0x00000000	0.0
16	0x00000000	0.0
17	0x00000000	0.0
18	0x00000000	0.0
19	0x00000000	0.0
20	0x00000000	0.0
21	0x00000000	0.0
22	0x00000000	0.0
23	0x00000000	0.0
24	0x00000000	0.0
25	0x00000000	0.0
26	0x00000000	0.0
27	0x00000000	0.0
28	0x00000000	0.0
29	0x00000000	0.0
30	0x00000000	0.0
31	0x00000000	0.0
32	0x00000000	0.0
33	0x00000000	0.0
34	0x00000000	0.0
35	0x00000000	0.0
36	0x00000000	0.0
37	0x00000000	0.0
38	0x00000000	0.0
39	0x00000000	0.0
40	0x00000000	0.0
41	0x00000000	0.0
42	0x00000000	0.0
43	0x00000000	0.0
44	0x00000000	0.0
45	0x00000000	0.0
46	0x00000000	0.0
47	0x00000000	0.0
48	0x00000000	0.0
49	0x00000000	0.0
50	0x00000000	0.0
51	0x00000000	0.0
52	0x00000000	0.0
53	0x00000000	0.0
54	0x00000000	0.0
55	0x00000000	0.0
56	0x00000000	0.0
57	0x00000000	0.0
58	0x00000000	0.0
59	0x00000000	0.0
60	0x00000000	0.0
61	0x00000000	0.0
62	0x00000000	0.0
63	0x00000000	0.0

backbone.res2.2bn.running_mean f4 [64]
0	0x00000000	0.0
1	0x00000000	0.0
2	0x00000000	0.0
3	0x00000000	0.0
4	0x00000000	0.0
5	0x00000000	0.0
6	0x00000000	0.0
7	0x00000000	0.0
8	0x00000000	0.0
9	0x00000000	0.0
10	0x00000000	0.0
11	0x00000000	0.0
12	0x00000000	0.0
13	0x00000000	0.0
14	0x00000000	0.0
15	0x00000000	0.0
16	0x00000000	0.0
17	0x00000000	0.0
18	0x00000000	0.0
19	0x00000000	0.0
20	0x00000000	0.0
21	0x00000000	0.0
22	0x00000000	0.0
23	0x00000000	0.0
24	0x00000000	0.0
25	0x00000000	0.0
26	0x00000000	0.0
27	0x00000000	0.0
28	0x00000000	0.0
29	0x00000000	0.0
30	0x00000000	0.0
31	0x00000000	0.0
32	0x00000000	0.0
33	0x00000000	0.0
34	0x00000000	0.0
35	0x00000000	0.0
36	0x00000000	0.0
37	0x00000000	0.0
38	0x00000000	0.0
39	0x00000000	0.0
40	0x00000000	0.0
41	0x00000000	0.0
42	0x00000000	0.0
43	0x00000000	0.0
44	0x00000000	0.0
45	0x00000000	0.0
46	0x00000000	0.0
47	0x00000000	0.0
48	0x00000000	0.0
49	0x00000000	0.0
50	0x00000000	0.0
51	0x00000000	0.0
52	0x00000000	0.0
53	0x00000000	0.0
54	0x00000000	0.0
55	0x00000000	0.0
56	0x00000000	0.0
57	0x00000000	0.0
58	0x00000000	0.0
59	0x00000000	0.0
60	0x00000000	0.0
61	0x00000000	0.0
62	0x00000000	0.0
63	0x00000000	0.0

backbone.res2.2bn.running_var f4 [64]
0	0x3f800000	1.0
1	0x3f800000	1.0
2	0x3f800000	1.0
3	0x3f800000	1.0
4	0x3f800000	1.0
5	0x3f800000	1.0
6	0x3f800000	1.0
7	0x3f800000	1.0
8	0x3f800000	1.0
9	0x3f800000	1.0
10	0x3f800000	1.0
11	0x3f800000	1.0
12	0x3f800000	1.0
13	0x3f800000	1.0
14	0x3f800000	1.0
15	0x3f800000	1.0
16	0x3f800000	1.0
17	0x3f800000	1.0
18	0x3f800000	1.0
19	0x3f800000	1.0
20	0x3f800000	1.0
21	0x3f800000	1.0
22	0x3f800000	1.0
23	0x3f800000	1.0
24	0x3f800000	1.0
25	0x3f800000	1.0
26	0x3f800000	1.0
27	0x3f800000	1.0
28	0x3f800000	1.0
29	0x3f800000	1.0
30	0x3f800000	1.0
31	0x3f800000	1.0
32	0x3f800000	1.0
33	0x3f800000	1.0
34	0x3f800000	1.0
35	0x3f800000	1.0
36	0x3f800000	1.0
37	0x3f800000	1.0
38	0x3f800000	1.0
39	0x3f800000	1.0
40	0x3f800000	1.0
41	0x3f800000	1.0
42	0x3f800000	1.0
43	0x3f800000	1.0
44	0x3f800000	1.0
45	0x3f800000	1.0
46	0x3f800000	1.0
47	0x3f800000	1.0
48	0x3f800000	1.0
49	0x3f800000	1.0
50	0x3f800000	1.0
51	0x3f800000	1.0
52	0x3f800000	1.0
53	0x3f800000	1.0
54	0x3f800000	1.0
55	0x3f800000	1.0
56	0x3f800000	1.0
57	0x3f800000	1.0
58	0x3f800000	1.0
59	0x3f800000	1.0
60	0x3f800000	1.0
61	0x3f800000	1.0
62	0x3f800000	1.0
63	0x3f800000	1.0
