model/best_model_net2.pth (torch, 9483 bytes, 7 tensors)

up1.up_conv.0.weight f4 [32, 16, 3]
000000 35 7b 8a 3c f4 2f 3b be 00 8b 49 3d 3a c0 f0 bc
       0.016904453 -0.18280011 0.049204826 -0.029388536
000010 6b a9 5f bd d4 cd 6b 3d b5 90 78 3d 2f 80 a6 3b
       -0.05460493 0.05756934 0.06068488 0.0050811986
000020 ba 60 90 bd 27 aa 93 3d 17 eb ec bd 06 a8 54 bd
       -0.07049699 0.07210188 -0.11568277 -0.051918052
000030 e3 9a fb bd 69 ee a5 bc be 25 76 3c 59 f0 cf bc
       -0.12285402 -0.020255284 0.015023647 -0.025383161
000040 72 20 50 be b8 69 f4 bd f6 fe cb 3d 75 2a 8c bd
       -0.20324877 -0.11934227 0.09960739 -0.068440355
000050 0b d1 08 bc f8 45 af bd c8 ca 8c bc 4a ac 3c bd
       -0.008350621 -0.08558267 -0.017186537 -0.046062745
000060 19 65 d9 ba d1 b8 e8 3c ad bc 33 3d c5 55 65 3d
       -0.0016585916 0.02840844 0.043881107 0.05599
000070 d4 8b 07 3d 05 03 c1 bd 9a a8 15 3d e7 bb 1f bd
       0.033092335 -0.09424404 0.036537744 -0.038997557
000080 9a 3d 8d 3d fb df 1c be a3 d4 1c bc 62 88 ba 3b
       0.06896515 -0.15319817 -0.009572181 0.0056925276
000090 fe 74 a9 bc c6 79 f3 3c 24 60 7b bd f3 ed 0b be
       -0.020685669 0.029721152 -0.061370984 -0.13664989
0000a0 26 33 d1 bd 15 15 8b 3d 37 ad c2 3d ba 5c 6e be
       -0.10214834 0.067911305 0.09505694 -0.2327756
0000b0 90 25 98 bc f5 6c b6 3d f5 e4 0e 3e 08 60 09 be
       -0.018572599 0.08907501 0.13954528 -0.1341554
0000c0 5e 1a db bd 1a fd c7 bd 77 9c 61 3c 8c 41 bb bc
       -0.106983885 -0.09765072 0.013770214 -0.022858404
0000d0 6e 17 f6 bc 4e 10 c9 3c 16 8a 0b 3e 18 39 f0 bd
       -0.030040469 0.024543907 0.13626894 -0.1172964
0000e0 ed 41 d8 3c 01 b2 91 3d 65 74 3a be 7d 51 67 bd
       0.026398623 0.0711403 -0.18208463 -0.056474198
0000f0 31 41 d9 bc be 87 8c 3c 9f 21 af 3c 1d fb 55 3d
       -0.026520343 0.01715457 0.021378336 0.052241433
000100 21 05 7d bc ca d0 45 3c e3 41 e8 3c 6c 46 9a 3d
       -0.015443117 0.012073705 0.02835173 0.07532963
000110 5d 0f 4a 3b c6 9f 34 3b c7 41 89 bc 73 25 04 bc
       0.003083191 0.0027561053 -0.016754998 -0.008065569
000120 7f cc 9e bc f5 86 1d bc 6c fa 5c bc 67 65 c8 be
       -0.01938462 -0.009614696 -0.01348744 -0.39139864
000130 ae 8f 88 3d 64 2d 04 be 3b 54 14 3e 12 6e 3a 3d
       0.0666803 -0.1290794 0.14485256 0.045515127
000140 ba 99 0c 3d 10 11 43 3d 17 02 2d bd 7c d6 ac bc
       0.034326293 0.047623694 -0.04223832 -0.021098368
000150 44 15 b9 bc 9e d6 9f 3d 79 57 3b 3c f3 11 29 bd
       -0.022593148 0.07804607 0.011434429 -0.041276883
000160 65 78 b9 3c db dc 80 3c e0 60 2f bd a2 2a 3c bd
       0.022640416 0.015730312 -0.042816997 -0.045939095
000170 1f a4 35 bd 5d 67 cf 3b 32 83 19 bc 74 8e e6 3d
       -0.04434597 0.0063294605 -0.009369658 0.112576395
000180 69 d1 19 bd 20 56 7a bd 9e 86 54 3d 47 5e 23 3d
       -0.037553225 -0.06111729 0.051886193 0.03988483
000190 57 74 85 bd 2e b4 e4 bd 18 b6 47 bd f8 41 81 3d
       -0.06516331 -0.11167179 -0.048757643 0.06311411
0001a0 9e 8c ba bd a3 38 ac 3c 0f 19 76 3d 21 fc 83 bc
       -0.09108852 0.0210231 0.06008249 -0.016111435
0001b0 bb 81 d3 bc 8d cf 0b bb 8b 64 79 bd c4 6a 9f 3b
       -0.025818696 -0.0021333427 -0.0608869 0.0048650224
0001c0 ab 03 77 bc 0e e2 bf 3c b9 84 22 bc 1c 5d 08 bd
       -0.015076558 0.023423221 -0.009919339 -0.03329192
0001d0 55 52 44 3d 53 77 89 3d 52 fa 66 bd 02 c0 0e 3d
       0.04793008 0.067122124 -0.056391068 0.03485108
0001e0 ae 50 0f 3d 1f 01 a3 bc 00 ec 94 3d 92 2e 0c 3d
       0.03498905 -0.019897996 0.07271576 0.0342241
0001f0 e6 59 4a bd 1b 67 03 3d 26 0f 50 ba 40 56 99 bd
       -0.04940214 0.03208075 -0.00079368276 -0.07487154
000200 1e 82 5e bd ca 70 59 3d 4f bb 8f 3d 6a a7 f5 3c
       -0.05432331 0.05308608 0.07018148 0.029987056
000210 bd 8d dd 3c 7e d9 26 be ac ec 80 3d 2e a9 36 bd
       0.027045125 -0.16293904 0.062951416 -0.044594936
000220 f5 db d0 bc dc e0 c9 bc 0c 7b 8e bd 96 32 bf bd
       -0.025495509 -0.024643354 -0.06957063 -0.093358204
000230 2d 4d 97 3d cc f9 d9 3d 7c 76 ca bd b2 cb 58 3c
       0.07387767 0.10643348 -0.0988588 0.0132321585
000240 19 4c 5a bd b0 27 f4 bd 86 40 cf bc 0c 04 23 3c
       -0.05329523 -0.11921632 -0.025299322 0.009949695
000250 bc db ff bc d6 e5 90 3d 25 48 34 bd 48 17 81 bd
       -0.031232707 0.07075088 -0.044014115 -0.06303269
000260 88 42 0b 3d 8d 17 83 bc a6 dc af bc ac e7 62 bb
       0.033998996 -0.01600244 -0.021467518 -0.003462295
000270 8d 8c 05 3c 11 e0 a0 3e e3 64 38 bd 81 b9 47 bc
       0.008151186 0.3142095 -0.045018088 -0.012190224
000280 34 41 96 3d 60 72 04 3e 24 5a 32 bc 71 d0 97 be
       0.07336655 0.12934256 -0.010885749 -0.29651216
000290 b5 31 01 be 79 ab d3 bc 59 76 28 bc 06 c2 40 3d
       -0.12616618 -0.0258386 -0.0102821225 0.047060035
0002a0 63 22 e4 3c df e7 25 3d 7c 02 31 be 0e 10 1b 3d
       0.027848428 0.040504333 -0.17286104 0.037857108
0002b0 d4 fd bd bc ef 3b fc bc 61 a5 7c bd 54 54 00 be
       -0.023192324 -0.030790297 -0.061681155 -0.12532169
0002c0 7d 03 99 3c fb a2 ef 3c 30 38 04 be 40 bc 23 3e
       0.018678421 0.02925252 -0.12912059 0.1598978
0002d0 dc 74 cb bc f3 c4 3b bc 34 b6 41 3e 84 55 aa 3b
       -0.024835996 -0.011460531 0.18917161 0.0051981825
0002e0 71 cb 8d bd ce 76 59 bc e5 bc cb 3c da 30 16 be
       -0.06923569 -0.013272954 0.024870345 -0.14667073
0002f0 08 d0 13 3e 8e bc 7b bd b9 c5 58 3c ed c9 68 bc
       0.14434826 -0.061459117 0.0132307345 -0.014208299
000300 7e 38 c2 3d 11 ba 09 be b3 87 ff bd aa 60 2c bd
       0.09483431 -0.13449885 -0.124770544 -0.042084374
000310 b2 2c d1 bd a1 68 98 3c f5 cf ae ba c1 25 c4 bc
       -0.10213603 0.018604578 -0.0013337123 -0.023943784
000320 65 73 b4 bd e7 5b ad 3d 75 d1 08 3e 8e 2e 7c bd
       -0.08811072 0.084647946 0.13361152 -0.061567836
000330 c0 0d d4 3d ed d7 94 3e 0b c7 cd 3d 92 4d 99 3d
       0.10354185 0.29070988 0.1004773 0.074854985
000340 34 89 ae bc 1f fe 61 3d 97 24 fe 3b 6f 07 c0 bd
       -0.021305658 0.05517399 0.0077558267 -0.09376418
000350 8f 44 07 bd f5 9a 55 bc e1 07 ec bd fe 26 03 3d
       -0.033024367 -0.013037433 -0.1152494 0.032019608
000360 50 0e 27 bd db c0 5a be 5d de 15 3e 24 81 81 3d
       -0.040785134 -0.21362631 0.14635606 0.0632346
000370 16 46 88 bc 27 63 f3 bb ad 3b e0 bd 50 26 00 be
       -0.016634982 -0.0074275914 -0.10948882 -0.12514615
000380 c1 7d 67 bd 44 6b 64 3b 0c 01 eb 3c e8 84 c9 3d
       -0.056516413 0.0034853974 0.028687023 0.09839803
000390 02 55 34 bd 49 33 49 bc bb 15 7f bb 41 9b b7 3d
       -0.044026382 -0.012280294 -0.0038922864 0.08965159
0003a0 80 f7 38 3c bc 78 f1 bd 30 d2 3a bb a4 d7 68 be
       0.011289477 -0.117906064 -0.002850663 -0.2273851
0003b0 e6 f5 0e bd 30 3c 0d 3c a2 a5 fb 3c 5e 45 53 bd
       -0.034902476 0.008620307 0.030718628 -0.051579826
0003c0 c6 fc c1 3a 24 6e 10 be 59 5b b3 3d 0a d6 1b 3e
       0.0014800064 -0.14104515 0.087576576 0.15218368
0003d0 0c c8 18 be 9c 44 c2 3c 9c 03 01 3e b0 8d b7 bd
       -0.14920062 0.023714356 0.12599033 -0.089625716
0003e0 2c 87 15 3d 2a 69 f1 3b 8f b6 1e 3e de e6 bc 3d
       0.036505863 0.007367273 0.15499328 0.09223722
0003f0 25 64 79 be 29 32 60 bd ab 71 4a be 1b 07 ff 3d
       -0.24354608 -0.054735336 -0.19769923 0.12452527

up1.up_conv.0.bias f4 [16]
000000 f5 54 03 3e 5c de 10 3e 76 0b eb bc 6b 21 32 3e
       0.12825377 0.14147323 -0.028691988 0.1739556
000010 bf 8a d8 3c b0 59 65 3e 38 72 96 3d da 1f 65 3b
       0.026433347 0.22397494 0.07346004 0.0034961612
000020 53 00 00 3e 39 30 9d 3d 07 6f c7 bd 72 de 03 3e
       0.12500124 0.07675213 -0.09737974 0.12877825
000030 5c 66 35 3b a2 26 47 3e e1 be ab 3c 63 f3 fe 3d
       0.002767942 0.19448331 0.020965042 0.12448766

up1.up_conv.1.weight f4 [16]
000000 ef e9 95 3f f1 9e 94 3f 3d 44 81 3f 18 9c 84 3f
       1.1712016 1.1611005 1.009895 1.0360136
000010 06 ca 8b 3f b7 92 8e 3f e5 72 8a 3f 63 f3 8e 3f
       1.0921028 1.1138524 1.0816313 1.1168026
000020 98 1d 8e 3f 93 f1 7e 3f be b8 87 3f 30 ba 89 3f
       1.1102781 0.99587363 1.0603254 1.0759945
000030 5e 4c 85 3f d5 a5 90 3f 47 f2 96 3f 79 d0 74 3f
       1.041393 1.1300608 1.1792687 0.95630604

up1.up_conv.1.bias f4 [16]
000000 d0 85 2a 3e 9f 51 20 3e 68 03 45 bc ed f1 2c 3d
       0.16652608 0.15656136 -0.012024738 0.042222906
000010 86 7b 09 3e 74 67 54 3e ed f3 e4 3d 7e 06 30 3e
       0.13426027 0.20742589 0.11179338 0.17189977
000020 8d 4c 1c 3e 63 68 c3 bd b2 25 52 3d a2 24 d7 3d
       0.15263577 -0.095413946 0.05130548 0.10505034
000030 ed 8b 1b bb 2e 78 18 3e 08 e9 31 3e 38 f4 30 bd
       -0.0023734525 0.14889595 0.1737405 -0.043201655

up1.up_conv.1.running_mean f4 [16]
000000 2a 54 05 bf 72 8e 2d bf 80 95 74 be b7 e0 8e 3d
       -0.5208155 -0.6779548 -0.23885155 0.06976455
000010 fd 13 5f be a5 ca 0a bf 0f 0d 11 bf d8 44 a3 be
       -0.21784969 -0.5421546 -0.5666055 -0.3188846
000020 09 0b 95 be c7 f2 c1 3d cf 00 81 bf 97 2f 96 be
       -0.29109982 0.09470134 -1.0078372 -0.29333183
000030 bb 5f 2a be 57 39 0f 3e 16 8b 39 bf b5 73 d3 3e
       -0.16638081 0.13986717 -0.72477853 0.41299215

up1.up_conv.1.running_var f4 [16]
000000 48 58 94 3f 35 af 74 3f dc a2 b6 3e 91 5c 69 3e
       1.1589441 0.95579845 0.35671127 0.22789218
000010 ca 9c 32 3f bb 99 50 3f 75 b7 33 3f 8a 05 3f 3f
       0.6977049 0.81484574 0.7020181 0.74617827
000020 cd 91 31 3f cf 18 a6 3d 8e df bf 3e 43 09 5f 3f
       0.693631 0.081102006 0.37475246 0.8712351
000030 56 32 25 3e a6 25 73 3f 9e dc a2 3f 8e c9 08 3e
       0.16132483 0.9497932 1.2723577 0.13358137

out.outconv.0.weight f4 [1, 16, 3]
000000 37 e7 65 be 55 34 65 be c8 0b 56 bd 0d 97 63 be
       -0.22451483 -0.22383244 -0.05225733 -0.2222559
000010 a7 ee 65 be 24 ec 58 be 27 17 eb bb f5 d0 36 3d
       -0.2245432 -0.2118383 -0.007174391 0.04463287
000020 9d 61 ad bd 69 df 88 bd 91 36 a3 3d 8f f4 c0 bd
       -0.08465884 -0.06683237 0.07969392 -0.09421646
000030 10 00 62 be b2 17 ba bd b2 32 ae bd 37 43 1d be
       -0.22070336 -0.09086551 -0.08505763 -0.15357672
000040 bf f5 1e be 92 aa ba bd 55 1f df bd 3b 84 be bd
       -0.15523432 -0.09114565 -0.10894648 -0.09302565
000050 4e 7d 80 bd aa d8 6e be 92 b7 7f be 8c 74 6f 3c
       -0.062739 -0.23324838 -0.2497237 0.014615189
000060 18 5d fd bd 59 8d 70 be e9 78 a4 bd 8a 5e 79 3d
       -0.12371272 -0.2349142 -0.08030874 0.060881175
000070 8f e6 0b be ec 11 a7 3d dd 48 7f bb 8d 93 28 be
       -0.1366217 0.08157715 -0.0038953342 -0.16462536
000080 5f 07 bf bc bc 9d a2 bd 34 c4 ce bd 77 5c 95 bd
       -0.023318944 -0.07940242 -0.100960165 -0.07293027
000090 e5 b0 a4 3d 21 ca d6 bd ac 05 4b 3d e8 03 a0 3c
       0.080415525 -0.10487772 0.049565956 0.019533113
0000a0 90 89 1b be 44 08 2f be 25 15 3e be 46 6a 32 be
       -0.15189195 -0.17092997 -0.18562753 -0.17423353
0000b0 44 74 c0 bd 74 5e 36 bc 96 00 5d 3d 21 ba 06 bc
       -0.09397176 -0.011130918 0.053955637 -0.0082230875
