model/best_model_net0.pth (torch, 11835 bytes, 12 tensors)

inc.conv.0.weight f4 [16, 1, 3]
-0.4332711 0.22711082 -0.16428241 -0.47305304 0.014786142 0.098475486 -0.037403345 -0.58589256
0.07812172 0.107946545 0.34399176 -0.25309783 0.13298135 0.30132806 0.43840036 -0.3284837
-0.15524638 -0.20466828 0.37658256 -0.3512109 0.08113948 -0.28230718 0.42311546 -0.067543775
-0.4505926 -0.7308662 0.007024855 -0.08371619 -0.41161057 0.5077141 -0.5966814 -0.31616196
-0.31787637 0.11542548 -0.123925455 -0.73392224 -0.58174753 0.55793047 -0.14109853 0.0023597337
0.22088149 -0.45320448 0.21306089 -0.48319504 -0.31055316 -0.4417332 -0.15430473 0.3853852
00000000: b6d5 ddbe bd8f 683e a639 28be 0234 f2be
00000010: 9341 723c 84ad c93d 4034 19bd 0efd 15bf
00000020: 48fe 9f3d 1413 dd3d b01f b03e 0a96 81be
00000030: 432c 083e ac47 9a3e 0376 e03e 042f a8be
00000040: e8f8 1ebe 9094 51be 6ecf c03e ead1 b3be
00000050: 752c a63d 918a 90be 97a2 d83e 6454 8abd
00000060: 13b4 e6be 0c1a 3bbf c130 e63b 6573 abbd
00000070: 9fbe d2be 8df9 013f 1dc0 18bf fbdf a1be
00000080: b1c0 a2be 3264 ec3d a1cc fdbd 54e2 3bbf
00000090: 68ed 14bf 88d4 0e3f 227c 10be c3a5 1a3b
000000a0: c22e 623e 6b0a e8be a22c 5a3e 5765 f7be
000000b0: d300 9fbe db2a e2be 0f02 1ebe 3551 c53e

inc.conv.0.bias f4 [16]
-0.13464084 0.24831775 -0.01029268 0.2250939 0.29892865 -0.37525755 0.012067261 -0.33798093
-0.2269395 0.4048708 -0.50894517 0.57944506 0.12824336 0.5415531 -0.27494752 -0.47456944
00000000: 4adf 09be 0247 7e3e a1a2 28bc 047f 663e
00000010: 2d0d 993e c221 c0be c3b5 453c d60b adbe
00000020: d462 68be 3a4b cf3e 3b4a 02bf 8356 143f
00000030: 3a52 033e 39a3 0a3f ecc5 8cbe c4fa f2be

inc.conv.1.weight f4 [16]
0.815772 1.0620806 1.0392286 0.9793433 0.9239553 1.0340418 1.1619093 1.0425243
1.0120723 0.88794 1.0555078 0.87937313 0.8186289 0.92773515 0.8129496 0.75708973
00000000: 6fd6 503f 42f2 873f 7105 853f 3eb6 7a3f
00000010: 5688 6c3f 7b5b 843f 72b9 943f 7071 853f
00000020: 968b 813f 0950 633f e11a 873f 991e 613f
00000030: aa91 513f 0d80 6d3f 771d 503f a2d0 413f

inc.conv.1.bias f4 [16]
-0.2428197 -0.05176459 -0.13981783 0.8664121 0.18614487 -0.05624146 0.53558403 0.0863171
0.01921756 0.6489463 -0.11757874 0.027880954 0.9147374 0.65119594 -0.033585954 0.01162394
00000000: baa5 78be 1b07 54bd 682c 0fbe 2fcd 5d3f
00000010: c39c 3e3e 725d 66bd 091c 093f 05c7 b03d
00000020: 256e 9d3c 5821 263f 1fcd f0bd 9966 e43c
00000030: 3b2c 6a3f c7b4 263f 6d91 09bd 5772 3e3c

inc.conv.1.running_mean f4 [16]
-0.1383988 0.2448944 -0.01580783 0.22709954 0.3073369 -0.3820057 0.013183578 -0.33726412
-0.2388124 0.4048214 -0.5209262 0.5722572 0.12651187 0.5391995 -0.2808069 -0.47654536
00000000: 6ab8 0dbe 99c5 7a3e 6c7f 81bc c88c 683e
00000010: 435b 9d3e 4096 c3be efff 573c e2ad acbe
00000020: 3d8b 74be c044 cf3e 6b5b 05bf 737f 123f
00000030: 548c 013e fa08 0a3f ecc5 8fbe c1fd f3be

inc.conv.1.running_var f4 [16]
3.200259e-06 2.9431048e-06 5.531807e-06 1.5590135e-06 1.1034515e-05 6.7805463e-06 1.6793158e-06 1.5371568e-06
2.0896869e-05 2.45117e-06 2.1669668e-05 1.0072111e-05 4.123179e-06 2.1039739e-06 6.2560675e-06 2.680023e-06
00000000: 08c4 5636 2882 4536 dc9d b936 4c3f d135
00000010: e220 3937 7384 e336 da64 e135 4e50 ce35
00000020: af4b af37 c87e 2436 42c7 b537 63fb 2837
00000030: d759 8a36 ff31 0d36 36eb d136 72da 3336

down1.maxpool_conv.1.conv.0.weight f4 [32, 16, 3]
0.019754475 0.057836834 -0.0936433 -0.04070546 -0.16053711 -0.11273156 -0.09323586 -0.2572468
0.017586188 -0.06398027 0.12920693 0.05111252 -0.06502722 -0.012393549 0.040120535 -0.117679365
-0.18327218 0.13210464 -0.046910223 0.14444636 0.10296921 -0.042126786 -0.010215418 -0.07427921
0.0045301714 -0.20834447 -0.0221074 -0.031754784 -0.21957485 -0.03526531 0.12583666 -0.23149742
-0.17088887 0.04586853 -0.03911181 -0.050466914 0.03367504 -0.014279701 0.03739941 0.11893517
-0.013610537 0.016060568 0.068578124 -0.060560685 0.07082007 -0.06156155 -0.08128436 0.028610336
-0.07831061 0.06909029 -0.0064742467 -0.14713599 0.09345742 -0.014482074 0.16567945 -0.09264605
-0.009132134 -0.18268056 -0.027266433 -0.0145561695 -0.012437972 -0.0054691522 -0.0014882773 -0.038920596
-0.04113846 0.060257357 0.06384794 0.32118705 -0.0050070835 -0.29924464 -0.11919883 0.0026135868
0.033630088 -0.089286506 0.009233419 0.23528528 0.04700392 0.010036328 0.03070098 0.100011446
-0.038493276 0.045383036 -0.021224286 -0.008934479 -0.06324377 0.015183998 0.0013334459 -0.17437266
0.03318457 0.011612071 -0.030538507 -0.01495523 0.0013602409 -0.036585182 -0.039871115 -0.005493807
0.034499135 -0.018439487 -0.0021198003 -0.042712014 -0.27558163 0.15971108 0.048680786 -0.13993388
0.08574731 -0.05754215 -0.08224535 -0.042553075 0.115196764 0.06519173 0.021343334 0.026831042
0.18160017 0.0852228 -0.009639701 0.037643135 0.07002695 -0.06989173 -0.018843208 -0.13993654
-0.02985359 -0.10809082 -0.08829683 0.06440255 0.020364547 -0.016089758 -0.022294303 0.16801223
-0.029352013 -0.08154477 0.10001398 -0.0453936 0.021923505 0.12103303 -0.031902574 0.013522273
0.06543345 0.016319167 0.06220658 -0.23924264 0.036108572 -0.0035883829 -0.14969143 -0.031264566
0.014865228 -0.034598324 0.06772088 -0.01948529 -0.01619327 -0.22380908 -0.00081086875 0.11506888
-0.03897255 -0.025793701 -0.0026139796 0.058180958 -0.020067576 0.0021201915 0.05170394 0.11629883
-0.05430484 -0.05310892 -0.0044028615 -0.016317265 0.039719652 0.021598747 -0.11137066 0.13865256
0.013779412 -0.019028844 -0.18508275 -0.029712025 -0.24807195 -0.019313345 -0.08068952 0.10556349
-0.16104732 0.013769989 0.1524906 0.046668217 -0.024796097 0.045299664 -0.19978002 0.04842245
0.281889 -0.079358205 0.008917882 -0.036909763 -0.0059932475 0.015210852 -0.038110934 -0.050226927
-0.025395026 -0.31905383 0.17516914 -0.003575795 -0.0720667 -0.01057176 0.037185285 -0.1342603
-0.102946624 0.009756124 0.018454138 -0.042053867 -0.030445352 0.03757812 -0.012894987 -0.033353187
-0.037218697 -0.1428663 0.057388823 0.11043677 -0.060439434 0.13069923 -0.008055043 -0.16907068
0.026653705 -0.0958628 -0.020337563 -0.10220127 0.05850102 0.051834594 0.06755716 -0.099125504
0.10721483 -0.114457145 -0.19860113 -0.06564167 -0.16792288 -0.026395444 0.068197355 0.022573488
0.061304342 0.026610114 -0.07168029 -0.17121062 0.03438459 -4.7993935e-06 -0.1165515 0.07177857
-0.07309808 0.10884028 0.016476575 0.034620073 0.15285061 -0.081489936 0.020517949 0.18097061
0.03459423 -0.027476348 -0.09090764 -0.036520027 0.088921055 -0.04766113 0.011994238 0.045599796
00000000: 23d4 a13c 51e6 6c3d 0fc8 bfbd c5ba 26bd
00000010: d763 24be cedf e6bd 71f2 bebd dab5 83be
00000020: e910 903c 1608 83bd d24e 043e 5d5b 513d
00000030: fe2c 85bd 500e 4bbc 6e55 243d e101 f1bd
00000040: b4ab 3bbe 7046 073e ef24 40bd bfe9 133e
00000050: 85e1 d23d 238d 2cbd 925e 27bc b31f 98bd
00000060: d571 943b 4158 55be 941a b5bc 4e11 02bd
00000070: 3bd8 60be 5c72 10bd 53db 003e a90d 6dbe
00000080: 7efd 2ebe a4e0 3b3d b533 20bd 65b6 4ebd
00000090: d7ee 093d 68f5 69bc 2030 193d 4894 f33d
000000a0: bbfe 5ebc 7491 833c b072 8c3d 7b0e 78bd
000000b0: 1d0a 913d f727 7cbd 6a78 a6bd 3960 ea3c
000000c0: 5061 a0bd 367f 8d3d eb25 d4bb d1aa 16be
000000d0: 9b66 bf3d 3946 6dbc e0a7 293e 36bd bdbd
000000e0: f29e 15bc 9d10 3bbe db5d dfbc 007d 6ebc
000000f0: a3c8 4bbc 9336 b3bb 4d12 c3ba 346b 1fbd
00000100: cd80 28bd 6bd0 763d b5c2 823d a172 a43e
00000110: 7612 a4bb 9836 99be 841e f4bd b648 2b3b
00000120: b4bf 093d d8db b6bd c447 173c a0ee 703e
00000130: 2f87 403d 696f 243c 9f80 fb3c cdd2 cc3d
00000140: 20ab 1dbd 90e3 393d 8ede adbc ec61 12bc
00000150: f385 81bd 4ec6 783c 05c7 ae3a bf8e 32be
00000160: 8bec 073d 8e40 3e3c e42b fabc c806 75bc
00000170: 1c4a b23a 58da 15bd e54f 23bd 6505 b4bb
00000180: f74e 0d3d 680e 97bc 59ec 0abb cbf2 2ebd
00000190: 0919 8dbe 4d8b 233e 8165 473d d44a 0fbe
000001a0: 499c af3d 51b1 6bbd 4070 a8bd 224c 2ebd
000001b0: 48ec eb3d 3e83 853d 37d8 ae3c c6cc db3c
000001c0: 65f5 393e 4b89 ae3d d6ef 1dbc b02f 1a3d
000001d0: 4a6a 8f3d 6523 8fbd 125d 9abc 864b 0fbe
000001e0: 848f f4bc b85e ddbd f8d4 b4bd 7ce5 833d
000001f0: 8dd3 a63c abce 83bc 8ba2 b6bc 660b 2c3e
00000200: a273 f0bc f200 a7bd 21d4 cc3d a4ee 39bd
00000210: ec98 b33c 2ae0 f73d 46ac 02bd 868c 5d3c
00000220: f901 863d c6af 853c 54cc 7e3d 06fc 74be
00000230: 95e6 133d 132b 6bbb b648 19be 460f 00bd
00000240: 498d 733c f9b6 0dbd 3fb1 8a3d 9d9f 9fbc
00000250: c0a7 84bc 352e 65be 7b90 54ba 3ca9 eb3d
00000260: aea1 1fbd 504d d3bc 4d4f 2bbb 284f 6e3d
00000270: c264 a4bc e9f2 0a3b 83c7 533d 152e ee3d
00000280: c06e 5ebd bd88 59bd e145 90bb c9ab 85bc
00000290: 13b1 223d dbef b03c 4d16 e4bd f0fa 0d3e
000002a0: 0bc3 613c 61e2 9bbc 5586 3dbe a266 f3bc
000002b0: 9306 7ebe 0537 9ebc 8c40 a5bd ac31 d83d
000002c0: 97e9 24be 859b 613c 7f26 1c3e 2c27 3f3d
000002d0: 2f21 cbbc 248c 393d 2293 4cbe 9e56 463d
000002e0: c153 903e 8e86 a2bd 4f1c 123c b12e 17bd
000002f0: 0163 c4bb f036 793c 361a 1cbd c0ba 4dbd
00000300: 3b09 d0bc 065b a3be 8a5f 333e e357 6abb
00000310: b597 93bd 2d35 2dbc 994f 183d 887b 09be
00000320: aed5 d2bd 26d8 1f3c 222d 973c ad40 2cbd
00000330: 8868 f9bc 84eb 193d 7f45 53bc 5a9d 08bd
00000340: a272 18bd 8b4b 12be 8b10 6b3d ac2c e23d
00000350: 578f 77bd 05d6 053e 4df9 03bc dd20 2dbe
00000360: df58 da3c b753 c4bd f69a a6bc e64e d1bd
00000370: c49e 6f3d 8350 543d 695b 8a3d 5002 cbbd
00000380: 7393 db3d 8268 eabd 185e 4bbe 246f 86bd
00000390: faf3 2bbe 423b d8bc 0eab 8b3d 09ec b83c
000003a0: 431a 7b3d 74fd d93c 1ecd 92bd d651 2fbe
000003b0: dbd6 0c3d 7a0a a1b6 8eb2 eebd a500 933d
000003c0: 72b4 95bd a7e7 de3d e2f9 863c c7cd 0d3d
000003d0: df84 1c3e 32e4 a6bd 4215 a83c 5c50 393e
000003e0: aeb2 0d3d 1416 e1bc c92d babd 0696 15bd
000003f0: 3e1c b63d 5138 43bd 7b83 443c dac6 3a3d

down1.maxpool_conv.1.conv.0.bias f4 [32]
-0.020772822 -0.119993 0.13657492 -0.065768756 -0.054478534 0.088617444 0.08765653 -0.11269523
0.10519461 -0.014147084 0.09534397 -0.043183953 0.019926662 0.16497895 -0.10441116 -0.09061186
-0.05527154 -0.015411891 0.014817439 0.108743414 0.04690168 0.06848819 0.11206052 0.04672145
0.020845128 0.0044997525 0.09701782 0.11450035 0.1335869 0.07472144 0.061474122 -0.012463868
00000000: c42b aabc e4be f5bd 4cda 0b3e c5b1 86bd
00000010: e224 5fbd 107d b53d 4485 b33d c2cc e6bd
00000020: 4670 d73d 2cc9 67bc b343 c33d a8e1 30bd
00000030: 3d3d a33c 3ef0 283e 85d5 d5bd b692 b9bd
00000040: 6964 62bd 2882 7cbc d8c4 723c deb4 de3d
00000050: fa1b 403d 8943 8c3d fc7f e53d fe5e 3f3d
00000060: 67c3 aa3c a972 933b 47b1 c63d 297f ea3d
00000070: 01cb 083e 8e07 993d 4acc 7b3d 4035 4cbc

down1.maxpool_conv.1.conv.1.weight f4 [32]
1.0878065 0.93483305 0.8559269 1.0791788 1.0368747 1.19368 1.006196 1.0028989
0.99298614 1.0167685 1.1026213 1.0468947 0.9787625 1.0586054 0.9079227 0.79658824
1.0522201 1.0360454 0.864585 0.9077551 0.86459243 1.0396664 0.8873208 1.0054336
1.0508894 0.984901 1.0341496 0.9442057 0.920793 1.0182762 0.9220187 0.8928986
00000000: 3e3d 8b3f 3851 6f3f 061e 5b3f 8822 8a3f
00000010: 4fb8 843f 82ca 983f 08cb 803f fe5e 803f
00000020: 5734 7e3f 7825 823f b222 8d3f a500 863f
00000030: 2e90 7a3f 6280 873f 9f6d 683f 35ed 4b3f
00000040: 26af 863f 239d 843f 7155 5d3f a362 683f
00000050: ee55 5d3f ca13 853f 7527 633f 0cb2 803f
00000060: 8b83 863f 7922 7c3f 045f 843f 77b7 713f
00000070: 17b9 6b3f e056 823f 6b09 6c3f 0195 643f

down1.maxpool_conv.1.conv.1.bias f4 [32]
-0.005348777 -0.11914611 0.0010943047 -0.08687873 0.21821629 -0.03725156 0.14827439 -0.041481353
0.111329794 -0.14040238 0.24924791 -0.032062866 -0.013048479 0.19995138 -0.12323653 0.14355087
-0.032373466 0.08057271 0.24144246 0.13804007 0.11412527 0.42113373 -0.038341384 0.111950904
-0.046676543 0.047046535 -0.08930002 0.21859981 0.009080892 0.2326496 0.37712577 0.15532824
00000000: cb44 afbb e002 f4bd c66e 8f3a 7aed b1bd
00000010: 1774 5f3e 1795 18bd 3ed5 173e 5ae8 29bd
00000020: e000 e43d a4c5 0fbe d83a 7f3e 5a54 03bd
00000030: 4ac9 55bc 0ec0 4c3e 6f63 fcbd 00ff 123e
00000040: 0a9a 04bd 4e03 a53d b13c 773e 605a 0d3e
00000050: 82ba e93d d79e d73e db0b 1dbd 8446 e53d
00000060: e72f 3fbd deb3 403d eee2 b6bd a1d8 5f3e
00000070: 06c8 143c b23b 6e3e a116 c13e 5e0e 1f3e

down1.maxpool_conv.1.conv.1.running_mean f4 [32]
-0.3263617 -0.10967166 0.2147887 -0.3637838 -0.41573435 0.38593724 0.6847988 -0.16512848
-0.14371105 -0.6145355 0.13025533 -0.08553998 -0.3086386 -0.26449567 -0.02211268 0.06990136
0.04895729 -0.482257 0.17394418 0.34495267 0.27484146 -0.028745048 0.32332626 -0.34889913
-0.26255286 0.10023739 -0.17983419 0.34745854 0.2998151 -0.25385097 -0.2428181 0.0050786375
00000000: e118 a7be 899b e0bd 92f1 5b3e df41 babe
00000010: 22db d4be 9199 c53e f94e 2f3f 7117 29be
00000020: fd28 13be 3352 1dbf a761 053e 962f afbd
00000030: e105 9ebe fa6b 87be a725 b5bc 7228 8f3d
00000040: 7087 483d 64ea f6be 6c1e 323e a39d b03e
00000050: 05b8 8c3e bc7a ebbc 058b a53e e8a2 b2be
00000060: 546d 86be 4349 cd3d 7426 38be 16e6 b13e
00000070: 5d81 993e c1f8 81be 4fa5 78be b36a a63b

down1.maxpool_conv.1.conv.1.running_var f4 [32]
0.23777243 0.034261815 0.02246428 0.022949345 0.1468914 0.1954969 0.3154316 0.24793707
0.07692201 0.30189013 0.33036578 0.103259966 0.21758352 0.10183167 0.020703312 0.1324619
0.041301142 0.19576325 0.050936587 0.01576716 0.03246317 0.097554356 0.029354664 0.030091906
0.17596558 0.037490975 0.057013396 0.03902367 0.057122473 0.14980248 0.07233695 0.08013806
00000000: 9e7a 733e 1e56 0c3d 0207 b83c 4400 bc3c
00000010: b36a 163e 5730 483e 4080 a13e 37e3 7d3e
00000020: 4989 9d3d 5891 9a3e b425 a93e f679 d33d
00000030: 37ce 5e3e 1f8d d03d fe99 a93c 18a4 073e
00000040: 632b 293d 2976 483e e2a2 503d 222a 813c
00000050: 1af8 043d 94ca c73d 3179 f03c 4d83 f63c
00000060: 5230 343e 2390 193d e186 693d 49d7 1f3d
00000070: 41f9 693d d265 193e 6525 943d 6c1f a43d
