model/best_model_net1.pth (torch, 9483 bytes, 7 tensors)

up1.up_conv.0.weight f4 [32, 16, 3]
000000 14 21 11 3d 1a 56 a7 3d 1c 3b 8b bd cc c1 d5 bd
       0.035431936 0.081707194 -0.067983836 -0.104373544
000010 b1 4d 51 3d 9b e2 bf 3d 57 05 6b 3b 58 27 2c bd
       0.051099483 0.093693934 0.0035861337 -0.04202971
000020 13 72 e0 3d 30 8f bb 3b 78 a0 8d bd 0d 4f a2 3c
       0.10959258 0.0057238564 -0.069153726 0.019813085
000030 bf 4a 03 3d 79 01 4f 3c df 80 8b 3d c1 ec cb 3d
       0.032053705 0.012634628 0.068116896 0.099572666
000040 3d 4c 51 be 89 90 f6 3c b7 05 f7 bc 3f 6f 16 bd
       -0.20439239 0.030098217 -0.030154092 -0.036727186
000050 86 60 80 3e 18 20 0b bc 0a eb a3 3d 69 0e 36 3c
       0.25073642 -0.008491538 0.080038145 0.011111834
000060 27 f2 da bd cd ff 99 3b 01 30 02 be 2f 27 5f 3d
       -0.10690718 0.0046996833 -0.12713625 0.054480728
000070 26 18 d1 3d 28 c9 77 bc 0b 14 82 3c a1 c0 82 bd
       0.10209684 -0.015123643 0.015878698 -0.06384397
000080 04 ac 7a 3d df a6 a2 3d 5d 4d e7 bd ed a0 5b bc
       0.061199203 0.079419844 -0.11294053 -0.013405067
000090 09 1b 18 bd 8e f2 c2 bc 6c 31 4c 3c 0d ec 3a bd
       -0.037135158 -0.0237973 0.012462955 -0.04563527
0000a0 e7 85 b9 bd 29 b0 7f 3d 7c a6 23 3e 58 62 98 3d
       -0.09058743 0.06242386 0.15981477 0.074406326
0000b0 42 4c c5 bd 20 94 27 be d8 fd ce 3d 27 61 b1 3d
       -0.09633686 -0.16365099 0.101070106 0.086611085
0000c0 42 98 2c 3e 1c c3 9f bc 3f cc 51 3d 7c 9f a0 bd
       0.16854957 -0.019502215 0.051220175 -0.07842919
0000d0 3b 3c 55 bd 05 41 b1 3d c4 1b c6 3d 11 32 ee bd
       -0.052059393 0.086549796 0.096732646 -0.11630643
0000e0 7f a2 e6 3c 16 21 8f be 73 66 6d bc 5a ec c7 be
       0.028153656 -0.2795493 -0.014489758 -0.3904751
0000f0 34 bc b3 bc 88 ed 62 bc 19 e6 66 3d dd b2 e9 3d
       -0.021940328 -0.013850577 0.056371782 0.114110686
000100 f4 63 5b bd db 78 0b bb c8 5b cf b9 8f 27 90 bc
       -0.05356212 -0.0021281752 -0.000395505 -0.017596988
000110 ba 1f 64 bd 49 49 a3 3d b9 cc 68 bd 8e db 21 3e
       -0.05569432 0.079729624 -0.056835864 0.1580641
000120 dd 4c 97 3b 44 8e 8d 3d d5 71 b5 3d a6 7b ee 3d
       0.004617317 0.06911901 0.08859602 0.11644678
000130 c6 30 58 3e 57 da cd 3d 5e 7d 40 be a4 e4 b7 bd
       0.21112356 0.10051411 -0.18797824 -0.089791566
000140 38 60 11 bd 7e 9f 4c 3d 17 d0 a5 3d 05 fb 35 3d
       -0.035492152 0.04995679 0.080963306 0.044428844
000150 a5 e6 54 3d 3e 80 03 3e c1 b7 c4 bd 88 22 1c bd
       0.051977772 0.1284189 -0.09605361 -0.03811887
000160 9d f4 2b bd 40 ab 87 bb 07 ec 53 be fa 93 8c 3d
       -0.04198133 -0.0041402876 -0.20695506 0.06864162
000170 af ac c3 bc 1d 63 15 3d 35 d1 ad bd 44 0b 9f bd
       -0.023886053 0.036471475 -0.08487169 -0.077658206
000180 74 c7 ac 3d 57 81 a2 3d 5f 1c 17 3d 42 44 02 3b
       0.0843648 0.07934826 0.03689229 0.001987711
000190 f0 7c d0 3d 39 92 18 bd 6c b9 95 bc 59 dc 69 3d
       0.1018008 -0.037248824 -0.018276893 0.057094906
0001a0 57 db bf bd ae cf 4a 3c a0 54 be bc 16 e8 b1 3d
       -0.09368008 0.012378616 -0.023233712 0.08686845
0001b0 d5 d3 4a 3c 36 a0 05 3d ef 31 8f bc e9 dd 97 bc
       0.012379606 0.032623492 -0.017479865 -0.018538432
0001c0 18 b8 fd bc fa eb 6d bd 0b b1 0a 3d fa de b2 bd
       -0.030971572 -0.058086373 0.033860248 -0.08733936
0001d0 aa 9d 96 3d 6b 00 03 3d f7 19 ee 3d cc cb 6f be
       0.07354291 0.03198282 0.11626046 -0.23417586
0001e0 4a 92 1a be 19 a0 18 be 09 3b 35 be 70 6a a5 bd
       -0.15094867 -0.14904822 -0.17698301 -0.08076942
0001f0 bc f4 38 be d9 9e 20 be 3b 78 ae bd e0 c9 aa 3d
       -0.18062109 -0.15685596 -0.08519026 0.08339286
000200 35 05 02 be f1 d8 fd bc 2b da ce 3c d9 aa 54 bc
       -0.12697299 -0.030987235 0.025250515 -0.012980186
000210 c6 39 f9 3d 81 27 1b be c9 f8 98 3d 98 0e 07 bd
       0.121692225 -0.15151788 0.07469327 -0.032972902
000220 c4 1d 73 3d b9 7a 4a bd 85 69 01 bd 9b b5 2a be
       0.05935456 -0.049433444 -0.031594772 -0.1667084
000230 3e b3 84 3a 2e fa 74 bd d7 60 10 3c ee 4b b8 3d
       0.0010124219 -0.059808902 0.008812151 0.089988574
000240 46 0a 27 3d 49 45 0d 3d e6 66 87 3d 85 0b 96 3c
       0.040781282 0.034489904 0.06611423 0.01831604
000250 72 5b 4c 3d 4f 1e 74 3d f8 0f 86 bd 0f e1 b7 bd
       0.049891897 0.059599217 -0.065460145 -0.089784734
000260 36 74 88 be f8 79 a6 bc 2e f9 42 bc 9c f3 6c bd
       -0.26651162 -0.020321831 -0.011900229 -0.05784951
000270 61 80 de 3c 62 c8 99 bd a6 71 82 3c 2f c0 06 bd
       0.027160825 -0.07508923 0.015923332 -0.032898124
000280 ca 33 a6 3d d9 2f 9e bc b7 3d 73 bc 42 46 fb 3c
       0.08115347 -0.019309925 -0.014846257 0.03067315
000290 72 03 cd bd a4 81 0b bd 0c 44 2c 3c bd e0 ea bd
       -0.10010423 -0.03405918 0.0105142705 -0.11468647
0002a0 e3 b8 db 3c a0 b3 a9 bd d2 df f0 3d b3 9d 5a 3d
       0.02682156 -0.08286214 0.1176144 0.05337305
0002b0 92 5d e5 bc 0d fd ec 3c 2b 95 95 3c 4d 87 18 3d
       -0.02799872 0.028929258 0.018259605 0.037238408
0002c0 09 49 b4 bd 2b 03 dd bd 6c 24 27 bd e7 14 10 3e
       -0.08802993 -0.1079162 -0.04080622 0.14070474
0002d0 23 57 97 bc fc 73 b7 bd 5e 69 73 bd 84 47 29 3b
       -0.018474167 -0.08957669 -0.059426658 0.002582998
0002e0 f3 f9 96 bd 97 79 1b be 13 31 6a bc c1 ce c8 bc
       -0.07371893 -0.15183102 -0.014293927 -0.02451265
0002f0 21 00 9b 3d 37 1d 51 3d 6a 5e 89 3d 34 b8 7a 3d
       0.07568384 0.051053252 0.06707461 0.061210826
000300 fb d3 9d bb ce 2c e2 bb 8e 75 67 bd a4 85 82 bc
       -0.00481653 -0.006902314 -0.056508593 -0.015932865
000310 8c 1d a2 3c f4 4f 8d 3d b6 54 00 bd 05 c4 08 3d
       0.01978948 0.069000155 -0.031330787 0.033390064
000320 66 b8 10 3c 00 81 9b 3d 27 ef 7b 3d c2 38 9b 3c
       0.0088330265 0.07592964 0.06150737 0.018947963
000330 22 27 c2 bc ad c9 1d bc da f9 d5 3d 52 8a df bc
       -0.0237003 -0.009630603 0.10448046 -0.027287636
000340 4d 33 ae 3d bb e4 e7 bd e4 18 a5 bd a0 14 94 be
       0.085058786 -0.11322924 -0.08061388 -0.28921986
000350 4d ad be 3c 82 94 1a bb be c1 ee bd 76 5f 63 be
       0.023275996 -0.0023587053 -0.11658047 -0.22204384
000360 b7 37 99 3d 4c 8e 8e 3c 7a b5 69 bd a9 05 1d bd
       0.0748133 0.017401837 -0.057057835 -0.038335476
000370 28 46 0a bd d0 01 29 3d 35 a8 94 bc fb 43 73 3d
       -0.033758312 0.041261494 -0.018146614 0.059391003
000380 ff 2a ad 3d 21 d4 2d bd 89 05 91 bc 70 cc cd bd
       0.084554665 -0.04243863 -0.017702835 -0.10048759
000390 1f 88 ac 3c 66 1c 94 bd 5b 0b 04 bd 7e a1 01 bc
       0.021061001 -0.07231979 -0.032237392 -0.007912038
0003a0 7f 45 33 bd db ae 77 3d 6c 0e 87 bc 8c c3 a7 bd
       -0.04376745 0.06046949 -0.01648637 -0.081915945
0003b0 ea a6 b4 bc 23 4f 24 3e ed 78 f0 ba de 8a 05 3e
       -0.022052247 0.16045813 -0.0018346586 0.13041255
0003c0 b0 96 dc 3d ec af 86 bc 34 a3 95 3c df 86 71 3d
       0.10770929 -0.016441308 0.018266298 0.058966514
0003d0 af 09 29 3e 3f 1e 47 bd f5 8c 1a bd e9 94 b5 bd
       0.165076 -0.04861283 -0.037732083 -0.08866293
0003e0 a5 1c a8 bc 24 3d 91 3d e1 27 d9 3c 25 a3 1e 3d
       -0.020521471 0.0709174 0.026508274 0.038729805
0003f0 08 af cd 3d e2 3f 0f 3c 1b 0b 86 bd f2 8d 97 3d
       0.1004315 0.008743258 -0.06545087 0.07400121

up1.up_conv.0.bias f4 [16]
000000 5a fd 1a bd 8e db a4 bd 8d be 40 3e 8e 7a c9 3d
       -0.03783927 -0.08049689 0.1882269 0.098378286
000010 63 b5 12 be 93 60 27 3d 62 5d 33 3e 62 2f c4 bc
       -0.14327006 0.040863585 0.17516091 -0.023948375
000020 c6 08 f0 3d 86 ec 61 3d fa 70 23 3e 3f 7d 33 3e
       0.117204234 0.055157207 0.15961066 0.17528246
000030 7d b6 4c 3d ae 65 80 3d 53 2c 4d 3d 2e 00 00 bb
       0.049978722 0.06269394 0.0500911 -0.0019531357

up1.up_conv.1.weight f4 [16]
000000 7c 08 8c 3f 2e 8f 90 3f 77 c1 8e 3f af b5 a2 3f
       1.0940089 1.1293695 1.1152791 1.2711695
000010 e2 02 87 3f 7b 7a 8c 3f bc 5f a2 3f 28 35 8d 3f
       1.0547755 1.0974878 1.2685466 1.1031847
000020 f9 ff 93 3f 40 bf 94 3f 6e 8f a0 3f 85 de 90 3f
       1.1562492 1.1620865 1.2543771 1.1317908
000030 8f b2 8c 3f d0 e9 8c 3f 6a 44 84 3f 1d e6 83 3f
       1.0991992 1.1008854 1.0333378 1.03046

up1.up_conv.1.bias f4 [16]
000000 c8 15 a1 3d 80 e3 8f bd 4d 73 ee 3d a7 e7 5c 3d
       0.078654826 -0.07025814 0.11643086 0.05393186
000010 84 d6 40 be ef 71 d2 3d 54 64 9e 3e a7 af 11 3e
       -0.18831831 0.10275637 0.3093592 0.14227162
000020 62 3d 14 3e 6b c6 2e 3e a1 67 5c 3d 0a 10 d9 3d
       0.1447654 0.17067878 0.053809766 0.10598762
000030 a4 ef c5 3d 59 ed c6 3d a9 cb 4a be 88 68 8a 3d
       0.096648484 0.09713239 -0.19804253 0.06758219

up1.up_conv.1.running_mean f4 [16]
000000 c5 f6 29 3e 49 fb 1d 3e 89 d1 f4 bd 78 81 e7 bd
       0.16598041 0.15427889 -0.11954028 -0.11303991
000010 bd 46 57 3e 84 9f 08 be 61 2d 08 bf c8 42 18 bf
       0.21023078 -0.133421 -0.5319424 -0.594769
000020 6a 9c 89 be 6f 2f 98 be 2c 20 fc 3d 57 59 b3 3d
       -0.26877147 -0.2972369 0.12310824 0.087572746
000030 8a e2 88 bd 17 22 c0 be a1 e7 df 3d fb 18 0c 3e
       -0.06683834 -0.37526008 0.109328516 0.13681404

up1.up_conv.1.running_var f4 [16]
000000 e5 a1 d5 3e 2e 22 86 3d 6a 3a 2c 3e 12 db a9 3d
       0.41725078 0.06549488 0.16819158 0.082937375
000010 08 fb f8 3d 90 67 c7 3e 49 f8 0a 3e a8 6e e9 3e
       0.121572554 0.389462 0.13571276 0.45592237
000020 a8 a8 16 3e 90 14 09 3e c7 fa 49 3e 70 38 a5 3e
       0.14712775 0.1338675 0.1972457 0.3226962
000030 4c 88 34 3e 85 06 90 3e b7 75 ab 3d dd da 18 3e
       0.17630118 0.28129974 0.08372062 0.1492724

out.outconv.0.weight f4 [1, 16, 3]
000000 f4 06 e4 3d 53 28 a2 3c c6 1d b8 3d 41 34 93 bd
       0.11134139 0.019794619 0.08990054 -0.07187701
000010 25 74 ae bd 67 25 fc 3d 9b 35 6f bd c5 5d 2f 3e
       -0.085182466 0.123118214 -0.05840073 0.17125614
000020 fa 95 1f 3d 6e fd 0e be 79 35 a1 3e 2a b2 e4 bc
       0.03896139 -0.13963863 0.3148611 -0.027916986
000030 22 08 01 3e 6e 77 34 be 66 82 96 bd c8 8b be 3d
       0.12600759 -0.17623684 -0.0734909 0.09304005
000040 14 8b 80 3e c8 f6 58 3e 71 51 9d bd d2 a5 cc bd
       0.25106108 0.2118789 -0.07681549 -0.09992565
000050 3e b9 9b 3e 39 7c fb 3d 44 c2 3c 3e e3 bb d2 bd
       0.30414766 0.12279553 0.18433481 -0.10289743
000060 02 59 5e 3e 0d be 7c bd b3 20 8a 3c 60 d2 14 3e
       0.21713641 -0.061704684 0.016861295 0.14533377
000070 18 39 14 be a2 f6 15 3e 33 47 48 3e c9 14 2e be
       -0.14474905 0.14644864 0.1955841 -0.17000116
000080 2b db 41 3e c4 8d 1f bb f8 14 45 3e 91 83 14 3e
       0.18931262 -0.0024345974 0.1924628 0.14503314
000090 e1 fd 49 3e 02 6a 0f 3d 01 7d 25 bd 7d 3c 19 3e
       0.19725753 0.035013206 -0.040402416 0.1496448
0000a0 fa 63 35 3e c8 f0 04 bd a7 e5 17 be 74 ba d9 3d
       0.1771392 -0.03245619 -0.14833699 0.10631266
0000b0 4d bb a1 bd 2e 92 37 3c 1e 1a 07 3e 06 d2 1e 3e
       -0.07897053 0.011204286 0.13193557 0.15509805
