model/Head.pth (torch, 30459 bytes, 12 tensors)

head.head_1.conv1.weight f4 [32, 1, 3]
00000000: 8781 0dbf 07d4 0ebf 313c e43d 1c92 0dbc
00000010: 3e78 4bbe bd58 b1bd 7c36 fcbe c99e ecbe
00000020: 13fc d1be 7ea3 c73c 6163 a8be 0320 c7be
00000030: 0fd7 dc3e bc96 ea3e 44f6 99bb ed53 babc
00000040: 2f50 b03e 86b1 7ebe 0640 39be c1ad 9bbc
00000050: 3fa2 1d3e a9f8 7b3e 028d 863e 70e3 f5be
00000060: 201f 1fbe 7720 da3d 4fa6 da3e 3946 023f
00000070: b659 c3be 2df2 bfbe 3746 8bbd 8592 1bbe
00000080: d38c ddbd 2a4f 0abe f6c7 b1be 066a d03e
00000090: 7f09 683e 4200 ea3e d42e 0d3f 140e 98bd
000000a0: 3eb2 83be 279d 0f3d 1f21 a63d f5ce c1be
000000b0: 3c1e 083f 0e99 c43d 2cab 603e a439 40be
000000c0: 5236 8abe 4d83 89bd b24e a03e 4644 8d3b
000000d0: cb14 05be 168f bcbd 80a1 dd3e 2481 0ebe
000000e0: b121 823d dbf9 cc3e da49 f0bd 6d68 c6be
000000f0: 0d0d d2bd 9c67 f9be 0a6e fb3e 8eeb c0be
00000100: e008 acbe c357 2e3e 8552 b83d 686e 433e
00000110: f9da 66be 5a75 eabc bc2f 163d 5391 debd
00000120: 47a9 91bd 6ad5 073f 4083 ea3e f03e d23d
00000130: 7274 713e eb80 cfbe b817 75be 45ad 8dbe
00000140: 5cbb 0b3f cf45 5fbe 9a59 573e f0fe a2be
00000150: e111 133f 91bf e13d 6633 00bf 808a 0ebf
00000160: 8081 e1be a4ca a73e e81d 3ebe e0c0 01bf
00000170: 7937 e4be 985b e73d ad87 123f d5bc cebe
-0.5527577 -0.5579228 0.11144293 -0.008640792 -0.19870088 -0.086595036 -0.49260318 -0.46214893
-0.4101263 0.024369951 -0.3288832 -0.3889161 0.43132827 0.45818126 -0.0046985466 -0.022745097
0.34436175 -0.24872407 -0.18090829 -0.01900375 0.15393923 0.24606575 0.26279455 -0.48025084
-0.15539217 0.106507234 0.42705008 0.508884 -0.38154382 -0.37489453 -0.06800502 -0.15192612
-0.10817876 -0.13506761 -0.3472287 0.4070589 0.22659872 0.45703322 0.5514958 -0.0742456
-0.25721925 0.03506198 0.08111786 -0.37853208 0.53171134 0.09599505 0.21940297 -0.18771988
-0.26994568 -0.06714497 0.3131004 0.0043111173 -0.12996213 -0.09206979 0.43287277 -0.1391645
0.063540824 0.40034375 -0.11732836 -0.38751546 -0.102563955 -0.4871186 0.4910739 -0.37679714
-0.3360052 0.17025666 0.09000114 0.19085085 -0.22544469 -0.02862041 0.036666617 -0.10867562
-0.07112365 0.5306002 0.4580326 0.102659106 0.23579577 -0.40528044 -0.23934829 -0.27671257
0.5458276 -0.21803974 0.21030274 -0.31835127 0.57449156 0.110228665 -0.5007843 -0.55680084
-0.44044113 0.3277179 -0.18566096 -0.5068493 -0.44573572 0.11296767 0.57238275 -0.40378442

head.head_1.bn.weight f4 [32]
00000000: c7e1 7e3f f2de 7e3f 8ce1 7e3f eae1 7e3f
00000010: 39ea 7e3f f1df 7e3f 25dc 7e3f 7fde 7e3f
00000020: 59df 7e3f b8d9 7e3f 58e0 7e3f c7e0 7e3f
00000030: efe6 7e3f 20df 7e3f c8e3 7e3f 33e4 7e3f
00000040: 52dc 7e3f 2be4 7e3f 64e7 7e3f 2ee0 7e3f
00000050: 0ee3 7e3f a0e2 7e3f 4bec 7e3f dddc 7e3f
00000060: 49de 7e3f 3be8 7e3f 2be2 7e3f 0be4 7e3f
00000070: 35f0 7e3f 69e0 7e3f 5ce9 7e3f 6be9 7e3f
0.9956326 0.9955894 0.9956291 0.9956347 0.99576145 0.9956046 0.99554664 0.9955825
0.9955955 0.9955096 0.9956107 0.99561733 0.99571127 0.9955921 0.99566317 0.99566954
0.9955493 0.99566907 0.99571824 0.9956082 0.9956521 0.9956455 0.99579304 0.9955576
0.9955793 0.99573106 0.99563855 0.99566716 0.99585277 0.9956117 0.9957483 0.9957492

head.head_1.bn.bias f4 [32]
00000000: 1112 023b bcb3 e13a 4ba1 b2ba 0a25 cdba
00000010: 7737 c739 edb3 573b 329a 093b e5dc 223b
00000020: 19a3 2a3b 8c75 e639 bb4a 02bb d3ec ed39
00000030: bdc4 ddba d282 293b 85a0 5f3b 8d51 173b
00000040: 5221 5b3b cb14 b93a 4708 213b edd2 4c3b
00000050: 7443 d0ba 8478 b039 eb71 24bb 1e5b 083b
00000060: 352b 153b f5e9 f7ba ba95 513b 6b4b 373b
00000070: 691c fcba 31df 543b 307a f33a 6e74 833a
0.0019847194 0.0017219703 -0.0013628391 -0.0015651297 0.00037997562 0.003291364 0.0020996449 0.0024850902
0.0026037155 0.00043956598 -0.0019880969 0.0004538061 -0.0016919594 0.0025865328 0.0034122777 0.002308938
0.0033436609 0.0014120577 0.0024571584 0.0031253651 -0.0015889243 0.00033659127 -0.0025092314 0.0020806263
0.002276135 -0.0018914329 0.0031980113 0.0027968537 -0.0019234541 0.0032481665 0.0018575843 0.0010029206

head.head_1.bn.running_mean f4 [32]
00000000: 9ab9 3bbd 06fa 5dbc 1e3a 80bd 1b7f 02bd
00000010: 1458 263d 37df 613b 3bdd 06bb ec64 b73a
00000020: da58 8e3c b859 3cbc f2a7 77bc 3492 64bb
00000030: 243d 683d 05ef 5fbc 0345 2e3c d5e3 c03b
00000040: 12e6 88ba 6144 24bc 8985 853c 45e2 9fbb
00000050: 102c 98bb d1f9 cbbc b797 2b3b d64c 95bb
00000060: 5d9f 2c3d c22b 43bb ef9a b23a acbd 73bc
00000070: e130 093c 1d9f fbbc 1524 56bd 6a31 553c
-0.0458313 -0.01354838 -0.06261085 -0.0318595 0.04061134 0.0034465322 -0.002057864 0.0013991869
0.017376352 -0.011496 -0.015115725 -0.0034877183 0.056698933 -0.013667827 0.010636571 0.0058865347
-0.0010444543 -0.010026068 0.016299026 -0.0048792684 -0.0046439245 -0.024899395 0.0026182958 -0.0045562787
0.04214417 -0.002978072 0.0013626496 -0.014876764 0.00837347 -0.03071552 -0.052280504 0.0130122695

head.head_1.bn.running_var f4 [32]
00000000: d3b5 623c de47 163c 7567 953c 615a 373c
00000010: f9a1 503c 958d 0f3c 143b 0f3c 376d 0f3c
00000020: 2a2a 1b3c 729e 143c 6b12 183c 32b7 0f3c
00000030: 105e 873c cd6b 163c 67ce 133c 566f 103c
00000040: ab3c 0f3c 58fd 123c 4bbb 193c 0144 103c
00000050: 5e2e 103c 46d0 273c b658 0f3c 85d5 0f3c
00000060: 998e 553c 1b8e 0f3c e27d 0f3c 73ec 173c
00000070: 6973 123c 16f6 343c 018a 7b3c 04f8 153c
0.013837296 0.009172408 0.018237809 0.011190982 0.01273393 0.008761783 0.008742113 0.008754066
0.009470502 0.009070979 0.009281735 0.0087717045 0.016524345 0.009180975 0.009021378 0.008815607
0.008742492 0.008971535 0.009383033 0.008805276 0.008800117 0.010242527 0.008749178 0.008778934
0.013034486 0.008761908 0.00875804 0.0092726825 0.008938649 0.011045 0.015352727 0.00915337

head.head_2.conv2.weight f4 [32, 32, 3]
00000000: cc63 c3bd e8f2 52bd 0898 a13c a4e8 32bd
00000010: 8072 253c 7e19 02bd c106 f63c f10b b9bd
00000020: 5f1a 52bd 59dd 74bc ca45 3abb f6c8 2f3d
00000030: 5976 503c ca3a 3abd 731d c03c 6bf5 903d
00000040: 079c 31bc ed08 33bc 7a53 99bd 647d 463d
00000050: c8d4 b8bd fa2f c9bd 13c4 2abd 64bf a13d
00000060: 0dd8 a63d cca1 343d 1ba3 733d 4f3a 993d
00000070: 2716 f13c abdc 4abc 1acb 823d 0e3f 033d
00000080: 3a72 c23d 94ae b5bd 9a83 b53d 1fb5 033d
00000090: a43d 4e3b 3f3e 2e3d 32da 123d a585 623d
000000a0: 78ef 11bd 83e9 7cbd cac9 9ebc d9a4 a23d
000000b0: a80b a53d 8a40 763d 2cf9 25bd 5ec1 a8bd
000000c0: 3cea b93d 9e60 0f3d f451 80bd c93c 1cbc
000000d0: 5d59 7ebd 2596 413c 282c c13c 58ed 3a3d
000000e0: e275 9e3d 8d1f a33d 9bb9 7b3d f6de 51bd
000000f0: e4af babd 7a33 32bd e35b 963b f182 8dbd
00000100: 62ad a9bd 6197 dcbc a015 4ebd c8c4 c23d
00000110: 9b94 953c 5c21 a13d 083e 393c 8f67 4abd
00000120: d5d9 55bc 01c3 f73b f0b0 3abc 5d36 d4bc
00000130: 1193 943d a093 533c b314 413d b2b5 983d
00000140: 9879 a0bd 7e00 bcbd b25c b0bd 9ea9 de3a
00000150: 953d 093d 755c 8ebd a93a a23d cb90 273d
00000160: 6fea bf3d 627f a2bc 5035 4c3d 51a3 2f3d
00000170: fdce b6bc 643d 42bd 9396 133d 3b93 b0bd
00000180: 2ee5 01bd f507 98bc 0948 8b3d 8ba5 51bd
00000190: fa65 c33d bbd7 b73d 4c8e 3c3d 5e27 b3bd
000001a0: 32be bebd 8a8d 8e3d 2ef5 65bb 4f98 e83c
000001b0: 88aa 9dbc 8d08 a83c d2dc babd 495b 6b3d
000001c0: 2526 bc3b ea15 f2bc 9d91 c3bd 68ab 66bb
000001d0: 01be ba3d a1c6 90bc 7d95 67bb 513b 683d
000001e0: 2c76 ce3c 3916 b73d 37af afbc 3230 5e3b
000001f0: 962c 3e3d 31b9 133c 73d6 92bd e9ee bcbc
00000200: 8821 a23d 60c5 33bd bc9d b6bd c76e 90bd
00000210: e168 e8bc 8180 78bd 2b42 eebb 8aeb 17bd
00000220: a46f a2bd 3ddb a0bc b9ae 59bd ced5 893b
00000230: e407 27bd 54fa ccbc b4c2 ccbc eea3 823d
00000240: 69f7 57bd 0a76 343d 670c 41bd 9571 5bbd
00000250: ebe8 ba3d fa17 433c cd35 b13d 07cd d13c
00000260: cc94 853d 07e6 8d3d 2ac2 233c a43c b83d
00000270: 2a12 f33c 5c5b 80bd c723 76bd 5dcd 983d
00000280: 2f77 28bc 2bf1 b33d befc b73d 521b 203d
00000290: 9c5f b63d 79aa 93bd 35a7 703d 4738 073d
000002a0: 1fa2 63bd 7ba0 e5bc 0e22 b93d fc06 983d
000002b0: cfc1 983c beed cb3d be01 c6bd cd86 a93d
000002c0: 8048 d13c a841 e03b 3139 113c 708e 843d
000002d0: a034 15bd 35f1 4cbd fe7a 923d b560 50bd
000002e0: 0ea1 433c 4aec a5bd 13ae 7abd b3c6 f8bb
000002f0: 7da0 96bc 3af5 c2bd 4804 21bd ed3b 903d
00000300: 4563 973b e431 cabc ca63 96bd 5d99 33bd
00000310: e98c 28bd 3944 aa3d 2af2 b83d 6928 7d3d
00000320: 5a00 d8bb 853f fb3b c1b3 ed3c 3325 bdbb
00000330: b3f9 48bd 1600 c4bd 35ba 6dbd 7d56 05bd
00000340: fc1f 2e3d 111b 74bd 577c 18bd d9a0 d83b
00000350: 3137 21bd d6b4 80bd 71ca 5d3d f7e6 69bd
00000360: 7b6a b7bc 73a4 233c 4f53 623d 2dbd 083d
00000370: ed7e e33c c4fd f43c b907 a93d b3df c2bd
00000380: 2e28 483d fd14 cc3a 0695 c33c 0599 a4bd
00000390: cbc0 393d 9954 5a3d 6fed 923d 3b9e 023d
000003a0: e95d f6bc ce07 b33c 90e2 b0bb dd8d ba3d
000003b0: 8ec0 bb3d 04ec f53b e48b bbbd b74d b5bd
000003c0: 2e05 e4bb 924f 57bd bebc f939 94fd 04bd
000003d0: 5847 8dbd 6730 8f3d be4b d0bc 1c88 8abd
000003e0: 3905 2d3a 20a3 00bd 9eed 90bd 2bda 233d
000003f0: b357 7abd 84a0 7d3d 196e b8bd 09ca 95bd
-0.09540519 -0.051501185 0.019725814 -0.043678895 0.0100981 -0.031762592 0.030032517 -0.09035481
-0.05129468 -0.0149453515 -0.0028422945 0.04291626 0.012723529 -0.045466222 0.023451542 0.0707806
-0.0108404225 -0.010927421 -0.07486625 0.048459426 -0.0902496 -0.09823604 -0.041690897 0.07897833
0.08146677 0.044099614 0.05948172 0.074818246 0.029429508 -0.012381713 0.06386395 0.032042556
0.09494443 -0.08871189 0.08862992 0.032155152 0.0031469846 0.04253983 0.03585262 0.055303235
-0.035628766 -0.06174613 -0.01938333 0.079415984 0.08058864 0.060120143 -0.040520832 -0.08240007
0.0907788 0.03500425 -0.06265631 -0.009535977 -0.062096942 0.011815582 0.023580626 0.045636505
0.07737328 0.07965002 0.061456304 -0.051238023 -0.0911558 -0.043506123 0.0045885905 -0.06909741
-0.08285023 -0.026927652 -0.050313592 0.09510189 0.018259337 0.07867691 0.011306293 -0.049415167
-0.0130524235 0.007561088 -0.011394724 -0.025904829 0.07254613 0.0129136145 0.04713888 0.07456531
-0.07835692 -0.091797814 -0.0861143 0.0016987806 0.033505995 -0.069512285 0.07921345 0.04090957
0.093708865 -0.019836131 0.04985553 0.04288036 -0.022315497 -0.047421828 0.03603227 -0.08621832
-0.031712703 -0.018558482 0.06800849 -0.051183265 0.09540935 0.08976694 0.046034142 -0.08747743
-0.093136206 0.0696059 -0.0035088765 0.028392939 -0.019246355 0.02051189 -0.091241494 0.057460103
0.005741852 -0.029551465 -0.09549258 -0.003519738 0.091182716 -0.017672839 -0.0035336905 0.056697194
0.025202833 0.089397855 -0.021445854 0.0033903238 0.04642924 0.009016321 -0.07169809 -0.02306314
0.07916552 -0.043889403 -0.08916804 -0.07052379 -0.028370323 -0.060669426 -0.0072710714 -0.037089862
-0.0793145 -0.019635791 -0.053145144 0.0042063957 -0.04077901 -0.02502171 -0.024995185 0.06378923
-0.052726183 0.044057883 -0.04713097 -0.053575117 0.09126457 0.011907572 0.0865284 0.02561046
0.065225214 0.0692864 0.009995023 0.08995941 0.029671747 -0.062674254 -0.060092714 0.07461045
-0.010282322 0.087862335 0.089837536 0.039088555 0.08904955 -0.072102495 0.05875321 0.033012655
-0.055574533 -0.028030625 0.090396985 0.07423207 0.018647103 0.09957455 -0.09668301 0.08277664
0.025547266 0.0068437643 0.008863733 0.0647248 -0.03642714 -0.05003472 0.07152365 -0.050873477
0.011940254 -0.08101709 -0.061201166 -0.007592046 -0.018387074 -0.095194295 -0.039310724 0.0704268
0.004619988 -0.024681993 -0.07343252 -0.04384743 -0.041150007 0.08313794 0.09030564 0.061806116
-0.006591839 0.007667484 0.029016377 -0.0057722568 -0.049066257 -0.09570329 -0.05803891 -0.032553185
0.04251097 -0.059596125 -0.037227955 0.0066109714 -0.039359275 -0.06284492 0.05414814 -0.05710503
-0.022389641 0.009987938 0.05525523 0.033383537 0.027770484 0.029906161 0.08253426 -0.095153235
0.048866443 0.001557022 0.02387477 -0.08036999 0.045349877 0.053303335 0.07174193 0.03188918
-0.030074077 0.021854308 -0.005398102 0.091090895 0.09167586 0.007504942 -0.091575414 -0.088527136
-0.0069586253 -0.05256612 0.00047633605 -0.032468393 -0.06898373 0.06991654 -0.025426742 -0.06764242
0.00066002045 -0.031405568 -0.07076572 0.040002983 -0.061118793 0.061920658 -0.090053745 -0.07313926

head.head_2.bn.weight f4 [32]
00000000: dbde 7e3f 98de 7e3f 11e1 7e3f e4e1 7e3f
00000010: 30e0 7e3f 19e1 7e3f d3e2 7e3f e8de 7e3f
00000020: dddf 7e3f b1de 7e3f f9e0 7e3f a7e6 7e3f
00000030: a1e0 7e3f 88dc 7e3f 33ef 7e3f 16df 7e3f
00000040: dae4 7e3f 5be9 7e3f 48e1 7e3f 20e6 7e3f
00000050: c0de 7e3f 9de1 7e3f 2ae0 7e3f ade1 7e3f
00000060: d8dd 7e3f 4fe9 7e3f 64e2 7e3f cbde 7e3f
00000070: 75df 7e3f cbe4 7e3f 09e3 7e3f b3dd 7e3f
0.995588 0.995584 0.99562174 0.9956343 0.9956083 0.9956222 0.99564856 0.9955888
0.9956034 0.9955855 0.9956203 0.995707 0.99561507 0.99555254 0.9958374 0.9955915
0.9956795 0.9957482 0.995625 0.9956989 0.9955864 0.9956301 0.995608 0.99563104
0.99557257 0.9957475 0.99564195 0.99558705 0.9955972 0.9956786 0.9956518 0.99557036

head.head_2.bn.bias f4 [32]
00000000: ec8d 463b 5616 1abb 71f7 cbba 817e f63a
00000010: 1f85 31bb de2b 423b fd90 e3ba 0f08 21ba
00000020: ddca fc3a 5fef 0abb a640 513b 09a5 07bb
00000030: c790 d83a a80d 133b d51a 8aba b6bc 453b
00000040: e8cf 1fbb b8a2 143b 51e9 eeba 3ef7 dfba
00000050: 5ff6 623b 3770 5e3b feff d03a 3c8b 1dbb
00000060: c8ae 263b 3938 49bb e33f e939 98d6 453b
00000070: ffbb ba36 6c37 27bb 5e0d ccba 0972 573b
0.0030296994 -0.0023511848 -0.0015561414 0.0018806012 -0.0027087403 0.0029628198 -0.0017361935 -0.00061428634
0.0019286532 -0.0021199805 0.0031929403 -0.0020697734 0.0016522639 0.002243856 -0.0010536561 0.0030172295
-0.0024385396 0.0022679996 -0.0018227493 -0.0017087234 0.0034631712 0.0033941397 0.0015945432 -0.002403929
0.0025433768 -0.0030703677 0.00044488822 0.0030187722 5.5651176e-06 -0.0025515212 -0.0015567949 0.0032874367

head.head_2.bn.running_mean f4 [32]
00000000: 5715 b33d 1a8d c33d 204a 5dbe b2a2 0cbd
00000010: bd79 c03d 1217 95bd a824 84bd 0ea7 9d3b
00000020: ec78 96bd 107a 1cbd 76c6 7f3d 864a a2be
00000030: 2684 b7be 35cd 6e3d 2eb4 a43c dab4 85bd
00000040: 2fbe e6bd 9081 253e 392c 1a3e 4cfc 923d
00000050: 777b 8cbd 5d3f b23d 0e5f 2cbe 9fb6 8b3e
00000060: 0796 0c3e 0c8a 6abd 43e5 623e 0c9c 473e
00000070: 8463 babe a996 af3e 4bcc febd bb27 c63d
0.087443046 0.09548397 -0.21610308 -0.034334846 0.0939822 -0.07279791 -0.06452304 0.0048111742
-0.07347283 -0.038202345 0.062445126 -0.31697482 -0.3584301 0.05830117 0.020105448 -0.06528635
-0.112667434 0.16162705 0.15055932 0.07177028 -0.068594866 0.08703492 -0.16833135 0.27287766
0.13729106 -0.057260558 0.22157769 0.19493121 -0.3640405 0.34294632 -0.124413095 0.09675547

head.head_2.bn.running_var f4 [32]
00000000: 072c 603e 14f8 313d f205 713d bcbc 443d
00000010: 2e50 1b3e aa94 9b3d ca42 5c3d 933f a33c
00000020: 0492 4a3e cca7 483d 4bcc a33c f876 4b3d
00000030: 8df0 e73e 2e1e 6b3d 7a46 023e 6f76 9a3c
00000040: d2e7 773c 2304 fe3c 8afb 2c3e ec99 fe3d
00000050: 0faf 823d bcf4 653e afec 133d e47e eb3d
00000060: 93cd 233e 5cb8 e83d f121 913d 2e75 e73d
00000070: 86cf df3d af26 003e 5f98 bd3d 7665 ed3c
0.21891795 0.043449476 0.05884356 0.048031554 0.15167305 0.07596715 0.053774633 0.019927775
0.19782263 0.04898815 0.019994875 0.049674004 0.45300713 0.05740183 0.12722197 0.018855302
0.015130954 0.031007832 0.1689283 0.12431702 0.06381046 0.2245664 0.03611439 0.11498812
0.15996389 0.11363289 0.07086552 0.11301647 0.10928254 0.12514757 0.09257578 0.028979044

head.head_2.conv3.weight f4 [32, 32, 3]
00000000: c884 363d fa2c 34bd 226e 15bc 2f3e b93b
00000010: f504 a5bd db83 87bd d8ca 58bd cab4 37bc
00000020: 2171 4cbd 8c17 ba3b 78d4 2e3d 82b8 30bc
00000030: fab1 403c bbdd 7bbd f4a8 a3bd 0f9a d2bc
00000040: 92f1 873d 1b91 883d 7a26 aa3c 1989 073d
00000050: d68b 383d bbdc 953d ba12 3f3d e530 bb3d
00000060: 916b cabc 7c40 d4b9 2f76 b4bc 64a4 a9bd
00000070: 9be5 3939 04e6 d93c 5d4b c53c 40b3 963d
00000080: 553a 963c 8217 48bd beba f2bc 615d 17bd
00000090: b392 a7bd afd7 95bd 1cb0 103c 4a63 a7bd
000000a0: f199 063d 1ec9 ea3c cd57 c63d 57dc a2bc
000000b0: c935 9b3c dfe4 00bd cc0d 013d a639 5c3d
000000c0: 0a37 9f3d 4429 d73c fabb 20bd eb4e 1e3d
000000d0: c52f 163d d04e 203d 94ef ae3d aef6 b83c
000000e0: 2746 8cbb 6c4c 9cbd 04b9 36bc 3b1e ca3d
000000f0: 178c 8a3d bf31 643d d00b 02bd 46f3 95bd
00000100: 06ce 9ebd d25b 5abd 867d a8ba 6979 c03d
00000110: 37d0 b9bd 9109 6fbd d656 3abd bf7d 343d
00000120: 6c11 f4bb 46f3 3f3b 7b40 49bd 5eef b5bc
00000130: cd0d 263d ac8d d4bb b690 b43c 4ccf 47bd
00000140: c524 68bd 411b 88bd c67b b53d 78b2 23bd
00000150: c11e 233a 114d aebd 924e c63c 9656 02bd
00000160: 0924 53b9 03df 89bc 740d bbbd 355d 80bc
00000170: c168 b73d f760 afbb 5b3d 90bd 0542 123d
00000180: bb3e c5bd 5054 71bd 6c91 1ebd 558e 0bbc
00000190: 6a79 78bd 26d2 a7bd c8ab f5ba b1da 18bb
000001a0: e06c febb fb45 f93c c569 5cbb 7f4e 5bbb
000001b0: 9654 973d ba5a 153d 0204 4dbc 3af7 023d
000001c0: aa55 183d c843 e5bc cf46 9a39 1348 8f3a
000001d0: 20f8 1dbd 9def c1bc 75bd abbd 7d8f 943d
000001e0: e73b c6bc 9648 8f3d de7b e3bc 0431 6fbb
000001f0: a2f7 763d 9df4 a83c 1106 7c3d ea14 40bd
00000200: 9957 b9bd 6f18 ee3c bce3 403d 2f54 c4bd
00000210: 65f5 ab3d 77c5 94bd 8e99 98bd 415b 073d
00000220: 21ca 7a3d caa9 913d a292 c5bd 4ea3 a13d
00000230: bac3 80bd 8739 553d 517e 8fbd ce77 adbd
00000240: bbe6 8dbb e7b6 f3bc 8cd5 23bd d495 883d
00000250: c9b3 babc 8310 36bc a1f2 a6bd 12e3 bcbd
00000260: 85f2 cb3d cd0f c33d ee45 953d 97d1 e33c
00000270: c40d 993d eb6b da3c 27aa b2bd e015 9ebd
00000280: 73db 65bc 4682 363c 3d4e 783d 0276 49bd
00000290: d735 86bd 0fba 253d 4691 513b 4810 8c3d
000002a0: 8ae5 a5bd 666f a33d 3513 bb3d 7d9f ad3c
000002b0: 2a91 e3bc a32b 693d 2893 b3bd d2c1 abba
000002c0: 7ee0 84bd 7538 3e3d 114e b43d ed7c cb3d
000002d0: 2321 903d 16c4 c23c 079e 953d fb31 f13c
000002e0: 0c2e 763d 28ec 983a 2503 5abd 8981 953d
000002f0: 7d3a c4bb b6f9 c23d 0bc1 b43d 1a2f 42bd
00000300: 5afb 6a3d 9b75 4b3c 685a dcbc 0dbf 7b3d
00000310: e770 683d 6a7d 8bbd 498e c23c d0fd 853a
00000320: b831 e83c 2ded c3bc ea92 123d 7f09 983d
00000330: 0f1b 93bd c492 12bd 23d0 81bd af74 eb3c
00000340: 4b56 0c3d b37e 77bc b9cf 4b3d 4750 c13d
00000350: c3ec 953d 3005 913d 7e97 fbbb 1e2b c7bc
00000360: c73a 7bbd 2dce 70bd 3ce6 aabc 7c5a a6bd
00000370: a36b 3cbd 972f 3abc cb89 f13a ac94 bdbd
00000380: ac47 b13d 2a92 fbbc beb9 22bd cee2 a6bd
00000390: a5da 92bd 8480 4cbd e97a 113d eaa3 75bd
000003a0: fd87 263c 3d52 c33d 9566 f2bc fcec 02bc
000003b0: 3fe8 023d 1498 873d c41a 013d 3947 963d
000003c0: d8c2 71bb 2d4b 94bd 8b8a 81bd 7ae8 af3c
000003d0: 3083 f8bc b2f9 cb3d 3183 c53d 2de6 7b3d
000003e0: 60a6 a4bd 42cb ab3d b103 88bd f17e a43b
000003f0: 69ca b6bc 09f1 11bc e538 10bd acde 2e3d
0.044560224 -0.043988205 -0.009120496 0.005653165 -0.08057586 -0.06616946 -0.052927822 -0.011212537
-0.049912576 0.0056790765 0.042683095 -0.010786178 0.011761183 -0.061490756 -0.079912096 -0.025708226
0.06637873 0.06668302 0.0207703 0.03308973 0.045055233 0.073174916 0.04664872 0.09140185
-0.024709495 -0.00040483836 -0.02202901 -0.08283308 0.0001772851 0.026598938 0.024083788 0.07358408
0.018338362 -0.048850544 -0.029630061 -0.036954287 -0.081822775 -0.07316529 0.00883105 -0.08173235
0.032861654 0.028660353 0.096847154 -0.019880457 0.018946545 -0.03146827 0.0315073 0.053765915
0.0777417 0.026264794 -0.03924177 0.03864948 0.03666665 0.03913766 0.0854179 0.022578564
-0.0042808237 -0.07631764 -0.01115251 0.09869047 0.06765001 0.055711504 -0.031749547 -0.07321791
-0.077541396 -0.053310223 -0.0012854792 0.09398157 -0.09072917 -0.058358733 -0.04549297 0.044065233
-0.007448366 0.002928929 -0.04913376 -0.022208866 0.040540505 -0.006486615 0.02204166 -0.048781678
-0.05667569 -0.06645823 0.088614985 -0.039965123 0.0006222539 -0.08510793 0.024207387 -0.031820856
-0.00020135952 -0.016829973 -0.09133425 -0.015669445 0.08955527 -0.0053521353 -0.070429526 0.035707492
-0.096311055 -0.058918297 -0.038712904 -0.008517821 -0.060662664 -0.081943795 -0.0018743211 -0.002332371
-0.0077644438 0.030428877 -0.003363238 -0.0033463535 0.0738918 0.036463477 -0.012513163 0.031974055
0.03719107 -0.027986422 0.00029425925 0.0010931514 -0.03856671 -0.023673827 -0.083857454 0.07253931
-0.024198486 0.069962665 -0.027769025 -0.0036497721 0.060294755 0.020624453 0.061529223 -0.046894945
-0.09049911 0.029064385 0.047092184 -0.09586369 0.08396415 -0.07264226 -0.07451163 0.03304601
0.06122792 0.07112463 -0.096471086 0.07892476 -0.06287332 0.052056815 -0.07006515 -0.084701166
-0.0043304837 -0.0297503 -0.039998576 0.066692024 -0.022790806 -0.011112335 -0.081517465 -0.09222998
0.09958366 0.09524498 0.07288729 0.027809901 0.07473329 0.026662787 -0.0872386 -0.07719016
-0.014029372 0.011139458 0.06062149 -0.049184807 -0.06553238 0.040460642 0.003197746 0.06839043
-0.08100422 0.07980232 0.09134523 0.021194214 -0.02777918 0.05692638 -0.08768302 -0.0013104028
-0.06488131 0.04644056 0.088039525 0.09935937 0.0703757 0.023775142 0.07305532 0.029442778
0.060102507 0.001166706 -0.053225655 0.073000975 -0.0059884177 0.09520285 0.088258825 -0.0474082
0.057368614 0.012418176 -0.026898578 0.061461497 0.056748297 -0.0681103 0.023749487 0.0010222737
0.02834402 -0.023916805 0.03578464 0.07423686 -0.071828954 -0.035784498 -0.06338527 0.028742163
0.034261983 -0.015105891 0.049758647 0.0943914 0.07320549 0.070810676 -0.0076779714 -0.024312552
-0.06133535 -0.058790375 -0.020861737 -0.08122727 -0.046001088 -0.011363885 0.0018427906 -0.092568725
0.086562485 -0.030709345 -0.03972792 -0.08148728 -0.071706094 -0.04992725 0.035517607 -0.059970774
0.010164258 0.0953717 -0.02958993 -0.007991072 0.03195977 0.066208035 0.031519666 0.073378034
-0.0036889818 -0.07240901 -0.06325253 0.021473158 -0.030335993 0.09959735 0.096441634 0.06149881
-0.08039546 0.08388378 -0.06641329 0.0050200154 -0.022313314 -0.008907565 -0.03521051 0.042692825

head.head_2.conv3.bias f4 [32]
00000000: 87fd bf3d fee4 fabc 4fc8 5cbd 55a0 a2bd
00000010: eee4 10bd 102b 8e3d e8d8 3d3d 60e0 0ebc
00000020: eeee 7b3c d0f8 edbc f926 8f3d 4d04 243d
00000030: be58 2f3d 3f5a abbd ed35 d1bc 6fe8 ad3d
00000040: 0c57 773d 4ffe c33d 3ef3 9f3d 9bcd a4bd
00000050: d240 b3bd 69d5 3dbd d7f9 7c3d 3335 b0bd
00000060: 873a bc3d cf9b 5abd d932 1cbd 3898 83bd
00000070: 87e2 03bd 6ab7 823d e222 7c3c 71d0 c33c
0.093745284 -0.03062677 -0.053901967 -0.07940737 -0.035374574 0.06941807 0.046349436 -0.008720487
0.0153767895 -0.029049307 0.06989855 0.040043164 0.04280924 -0.083668225 -0.02553841 0.08491599
0.06038575 0.0956999 0.07810067 -0.08047029 -0.08752598 -0.046346102 0.061761703 -0.08603897
0.09190851 -0.053371247 -0.03813443 -0.06425518 -0.032198455 0.0638264 0.015389176 0.023903104
